model.pkl (torch, 91628 bytes, 17 tensors)

fc1.weight f4 [64, 7]
00000000: 6f6b bfbe 9a72 43be f364 b43e 2da8 b9bd
00000010: 5ba5 ac3e e202 b73e fcac 8f3e e810 673e
00000020: a734 343e 6859 cabd e570 b9bd 1dd8 94be
00000030: e2ea 1fbe 9a73 5e3b c93b 653e 5a0b af3c
00000040: 82d0 5a3d 3ef9 843d 1e0c ca3c 3735 20be
00000050: 8f4d 253d 80f2 a53e ec0c d5bc 2370 27be
00000060: 5fc2 a4bd 3dc0 32be 015c b5be 99db 7ebd
00000070: 5d32 2fbe 4089 68bc ee0c 683e 800b 443c
00000080: c86f 2dbd 229d b4be e532 873e 5d5c c03e
00000090: ccc2 b4bd 4c6a fabd fda3 65be e743 c03d
000000a0: 84f1 d3bd f96c 8abe e87e aabe 0070 1039
000000b0: 49a5 95be b2d2 0f3e 663b 383e 916e 903e
000000c0: b98d afbe 150f b7be 1023 9cbc 8758 5cbe
000000d0: 386c 43bd 5d4f b93e 83fd 9f3e bfb5 adbe
000000e0: 04af 3b3e 6ea9 bdbe 04ac 8e3e b2f5 7a3e
000000f0: 7180 ad3e f187 0b3e 1787 083e 15b5 adbe
00000100: 2590 793e 3981 963d 4f74 b8be 6ef5 2c3e
00000110: d480 06be c1fd 24be f5e1 67be 67fc b33e
00000120: 7cbe 96be 4368 9b3e 2d76 a83d f7c4 773e
00000130: b8c2 8cbe a45c 843e 66c1 a03d 28db 8dbe
00000140: 1cfa bd3e 5d51 4fbd 59da 603e 452e 8a3e
00000150: 97a7 61be 58ad 07be 309f 063e d3db 653e
00000160: 17a5 07bd 964f f5bd 5940 483e 70a0 b0bd
00000170: 4103 803e 0aa4 80be d239 f9bd 6eb4 f0bd
00000180: 477f 0fbc a6df 2b3e 2c2f 5abe 75b8 c1bd
00000190: 4da6 20be 3d48 993e d2fd b53e 41a4 053e
000001a0: e560 9abd 5ee4 7dbe 908b 6c3d 9380 bf3e
000001b0: caf2 583e 1756 123e b50a c1bc ae6c a53e
000001c0: 83db 8a3e bd90 64be 0df9 05be ae31 97be
000001d0: 5aac 8bbe da26 a1be 42ea 093e 652d 2d3e
000001e0: cdcc bfbe 2b30 9ebe 8705 bebe 5a96 f0bc
000001f0: bc57 98be a5cb 08be 80ea cebb 04d8 aebd
00000200: daee 7abe 5040 60bd 9f91 b7be 42ab 1f3e
00000210: f0d4 aebc 7a26 3d3e 2227 ccbd 0a3b 0a3d
00000220: 3b8a 02be 0318 9ebe 4984 203e 6787 463e
00000230: f68c 4a3e 91ab bc3e d4fe 2abe 3ebe b5be
00000240: b4cb bcbe 6d2f 4cbe 386e 7cbe f439 b5be
00000250: 5368 13bd e8dd 4abe d855 ba3e b77e 8c3d
00000260: 3f26 b93e 5b89 63be 53cf 773e 8d77 1cbe
00000270: 9a20 7bbe 54b2 313e d1d5 00be 0639 603e
00000280: 690e 7ebe 10d7 5dbe 5155 66be eb8a 913e
00000290: 46b0 c2be 19ba 653d d585 76bd 81f5 c1bd
000002a0: 46de 8cbe 8f64 28bd ace2 65bd 74c2 d6bd
000002b0: 4eeb 2cbe 7f1a ae3e 13c6 06be 601e 3e3e
000002c0: 186c 6f3e a629 4fbe b078 c23d ba38 b2bc
000002d0: 3c9f 853d 1e7d a73e 232a 663e 3131 9f3e
000002e0: c069 353e 057d 253e 3469 063e ac4b b23e
000002f0: d10a b0be 408e ba3e 2d1e 9a3e 34cd 5d3e
00000300: 3d9e 8f3e 9c63 bbbe b802 bd3e 8c7c 9fbc
00000310: e2a1 20be 7129 8fbe 8e23 bd3e e453 98be
00000320: beaf 9a3e 093e a83e c7fd 37be 000e 9fbe
00000330: e5a7 aa3e d040 f2bd 5c53 c0be e235 463e
00000340: 8dac 21be 980a 7c3d 20e4 093e f37a 2b3e
00000350: e598 3b3e 2232 15be 1b65 4a3e 73dc 823e
00000360: 7d46 8ebe 8231 e33c 6e23 b73e 6fa6 903e
00000370: 83ca 073e 7798 63bd 5b05 8cbe 64a4 6dbe
00000380: 0dcb c8bd a09e 823e c40d 8f3d 8c45 85be
00000390: e182 523d ac85 6ebe 8f41 debd 5868 513e
000003a0: f41b b53e 29f6 38bb c681 763e bd85 13bc
000003b0: da63 8bbe d8d1 6b3e bb0a 2f3e 3386 9b3d
000003c0: 4465 6b3e fabd 80bd d70f b53e 63b7 b8bd
000003d0: 30f7 733e 6d88 5e3d 89b8 c0be 97d7 c83c
000003e0: 5f7b 0d3e 415d c2be a6fa 113e 5230 8b3e
000003f0: 50e4 5d3e 3c17 84be 4db9 973e 4218 223e
-0.37386653 -0.19086686 0.35233268 -0.0906528 0.33719906 0.35744387 0.28061664 0.22565043
0.1759821 -0.09880334 -0.09054736 -0.2907113 -0.15616944 0.0033943416 0.22386087 0.021367718
0.053421505 0.06492852 0.024663981 -0.156453 0.04035717 0.32411575 -0.026007138 -0.1635137
-0.08044886 -0.17456146 -0.35421756 -0.062221143 -0.17109056 -0.014192879 0.22661182 0.011965632
-0.04234293 -0.35276133 0.26406017 0.37570468 -0.08826217 -0.12227306 -0.22425838 0.09387951
-0.103488 -0.27036265 -0.33299947 0.00013774633 -0.29227665 0.14045218 0.17991409 0.28209355
-0.34287813 -0.35753694 -0.019059688 -0.21518146 -0.047710627 0.36193362 0.31248102 -0.33927724
0.18328482 -0.37043327 0.27865613 0.24507788 0.33887056 0.13626076 0.13332783 -0.33927217
0.24371393 0.07348866 -0.36026236 0.16890499 -0.13135082 -0.16112424 -0.2264479 0.35153505
-0.29442203 0.30352983 0.08225665 0.2419623 -0.2749231 0.2585193 0.07849388 -0.27706265
0.3710488 -0.050614703 0.21958293 0.26988426 -0.22036587 -0.13249719 0.13146663 0.22447138
-0.033116426 -0.119780704 0.19555797 -0.08624351 0.25002483 -0.25125152 -0.121692315 -0.11753164
-0.008758373 0.16784534 -0.21307057 -0.094590105 -0.15688439 0.29937926 0.35545212 0.13050939
-0.075380124 -0.24794146 0.057750285 0.37402782 0.21186367 0.14290653 -0.023564676 0.3230948
0.271206 -0.22320838 -0.13083287 -0.2953009 -0.2727993 -0.31474954 0.13468269 0.16911848
-0.37460938 -0.30896124 -0.37113592 -0.029368568 -0.29754436 -0.13358934 -0.0063145757 -0.085372955
-0.24505177 -0.054748833 -0.35853288 0.15592673 -0.02134177 0.18471709 -0.099684015 0.03374771
-0.12748043 -0.30877694 0.15675463 0.1938759 0.19780335 0.36849645 -0.16698772 -0.35496706
-0.36874163 -0.19939966 -0.2465142 -0.35395777 -0.035988163 -0.19811213 0.3639362 0.068601064
0.36161992 -0.22220366 0.24200182 -0.1527998 -0.24524155 0.17353183 -0.12581564 0.21896753
-0.24810185 -0.21664071 -0.22493483 0.28426298 -0.3802511 0.05608568 -0.060186226 -0.09470654
-0.2751333 -0.041111525 -0.056124374 -0.10486308 -0.16886637 0.3400459 -0.13161497 0.18566275
0.23381078 -0.20230731 0.094956756 -0.021755565 0.06524512 0.32712644 0.22477011 0.31092218
0.17716122 0.16160972 0.1312607 0.34823358 -0.34383252 0.36436653 0.30101147 0.2166031
0.28050414 -0.36599433 0.36916137 -0.019468568 -0.15686753 -0.27961305 0.3694119 -0.29751503
0.30212206 0.3285983 -0.17967902 -0.3106537 0.33331218 -0.11828768 -0.37563598 0.19356492
-0.15788479 0.06153354 0.13465929 0.1674612 0.18320043 -0.14569905 0.19765131 0.25558814
-0.27788153 0.027733568 0.35769218 0.2825198 0.13260846 -0.055565324 -0.27347836 -0.23207241
-0.09804354 0.25511646 0.069850475 -0.26029623 0.051394347 -0.2329318 -0.10852348 0.2044996
0.3537289 -0.0028222895 0.24072942 -0.009004054 -0.27224618 0.23029268 0.17093937 0.07593956
0.22987849 -0.06286235 0.35363647 -0.09019353 0.23824763 0.054329325 -0.3764079 0.024516864
0.13816594 -0.37961772 0.14255771 0.27185303 0.21669126 -0.25798976 0.2963356 0.15829566

fc1.bias f4 [64]
00000000: 7c16 5abd b880 b8be c6f1 a9bd b35e a3be
00000010: 2932 21be 430b 453e ea2b a0be 3583 bebe
00000020: 8a46 78be 7725 793e 67fd 93be e825 8c3d
00000030: 8015 1f3e 4622 5e3e 46d4 9a3d 4769 823e
00000040: d488 b0be bf69 873e 80e0 50bc 4f6f bd3e
00000050: 30a9 92be f782 d73d b7ab 44bd 180a a73e
00000060: 5829 3cba c3ae 8d3e 05d1 bf3e ccb9 98be
00000070: e26a ebbd e4ae dfbd f041 bc3d d910 cbbc
00000080: 5ca8 a4bd a6e9 7dbe c156 8d3e a7cd f33d
00000090: c3b3 9f3e c808 b1be e8b5 07bf 2ac9 793d
000000a0: d0ce d3bc 972d 96bb 2b78 60be 5cf5 a0be
000000b0: 97c3 6f3d ec6e 883d b54e 90be 61aa 42be
000000c0: 1655 783d 20ce cf3d e5cd 99bd 939f cdbd
000000d0: 32cd ff3c 7a07 3cbe b375 a6be 774e 893e
000000e0: 3b10 6dbd c715 373e 0a6f a13e a09d 33bc
000000f0: 028d 26be 7642 47be 93bf f23d 2d4a 0f3e
-0.0532441 -0.36035705 -0.08298068 -0.31908187 -0.15741791 0.19242577 -0.31283504 -0.37209478
-0.24245659 0.24330698 -0.28904268 0.068431675 0.15535545 0.21692762 0.07560019 0.25470945
-0.34479392 0.26447865 -0.0127488375 0.36998984 -0.28644705 0.105230264 -0.048015323 0.32624888
-0.00071777916 0.27672395 0.37464157 -0.29829252 -0.11494996 -0.109220296 0.09192264 -0.024788307
-0.080399245 -0.24796161 0.2760525 0.119044594 0.31191835 -0.34577012 -0.5301194 0.06098286
-0.025855452 -0.0045830715 -0.2192084 -0.31437194 0.05853614 0.06661782 -0.2818505 -0.19010307
0.06062802 0.10146737 -0.075099744 -0.10040202 0.031225774 -0.18362227 -0.32511672 0.26817676
-0.057876807 0.17879401 0.3153003 -0.010962874 -0.16264728 -0.19458947 0.11852946 0.1399314

fc2.weight f4 [64, 64]
00000000: 9465 7cbb e8fa 283d 3d67 a5bc e333 c13c
00000010: 9641 b33c 3d8b 38bd 056f fb3d b182 cb3d
00000020: 8ab6 0c3d 7045 ae3d 9b42 793a e6d6 b23d
00000030: 7bd1 dbbd 942e bf3c 1e65 3bbd 8652 d33d
00000040: f7da 3fbc 7d72 4b3c 59d9 e4bd fb8e c9bd
00000050: 98ba e0bd aa9c e83d 0c5a 223d e93e 2dbd
00000060: 0e83 023d 3bc5 f0bd 7eda a03d daf2 e33d
00000070: 3fd3 7dbc 09c2 48bd 397a 983d acce b93c
00000080: e015 1f3c 81d1 c53c fdb7 b9bd 5173 cd3d
00000090: 8542 ab3d 215c d4bd c371 c1bd f46d 993d
000000a0: 4cdf 98bc 4138 3d3d 7dd0 cc3c 3764 533d
000000b0: dfcc 5fbd 1510 b2bd a12f 4ebd 3fbe 46bd
000000c0: 2f58 bd3d a1ec 9c3d 9eb2 b3bb 05cb 52bd
000000d0: af2e 21bb b790 df3c 79e5 86bd e4a0 53bd
000000e0: ea7b 8abd 5a52 57bd 3b9f fdbb 172b 223d
000000f0: bcf1 ebbb 51f4 aabd 25ba ff3d 316b a63d
00000100: 1a30 2f3c 72a3 8cbc e87f c3bb 4f74 853c
00000110: 9662 38bd 62dc 82bd f05b 853d 7c97 7fbd
00000120: 9d8a 4d3c 6d47 ec3d 7736 fabd edd5 d8bd
00000130: 2610 0f3d 11d0 0f3d c73e a7bd 6932 b13d
00000140: e6de f93d 3599 f33c cbb7 393c 9fd5 6d3d
00000150: 7e01 ef3d 3ee2 dbbd 5876 98bd 0db4 2abd
00000160: 0f53 f5bc 96fc 1dbb ae9c 9b3d ceb4 b9bd
00000170: 4745 84bd 13e3 fbbd 7f8d e13d 5017 a73d
00000180: d316 acbd 027e 92bc 1d1a f23b 4194 dd3d
00000190: 1237 ebbd d49b e73d 2891 3ebd 4397 34bd
000001a0: eeaf 80bd 0e12 b7bd 1fdf 1a3d 23f7 4fbd
000001b0: 33e7 a53c 91b5 d6bd 4762 1cbd d08e 43bd
000001c0: b0f4 a0bd a17c 97bd 22bc edbd f248 2cbc
000001d0: 385c 983d 1fe3 a73d c7d8 3dbd 27f5 d0bd
000001e0: a7bb 393c 58b7 92bc eee2 d93d eb8d 14bd
000001f0: cc11 a03d 2731 bdbd 1e7d b73d e6b5 babd
00000200: d909 4abd 9968 693c 8ccf c63c d40c f33d
00000210: 8e3b 90bd 6f8b edbd 0ab8 b5bc bceb a33d
00000220: d217 d3bc a09b b73d 28b7 05bc 1445 963d
00000230: a731 82bd 4372 413d c87a 163d 40d5 d8bd
00000240: 0d25 6c3d 646c bb3d 26c6 4c3d ddcf ae3d
00000250: a7c2 833c 059a 47bc b237 9abd cb7c 8ebd
00000260: 8ffa 9bbd 7d82 a73d 445d e53b 6e26 423d
00000270: fdd6 d7bd b474 02bd 211b d9bd b872 92bd
00000280: 6828 c8bd 9775 723d ceb6 77bd a076 9f3d
00000290: 43ac 703d a932 03bd 355c 3a3d ba09 3ebd
000002a0: c9ce 353d ba5c 7a3d 94a8 14bd 6fbb 1d3d
000002b0: cec5 f0bd c8e5 b5bc 2406 a8bd 5095 9cbd
000002c0: cc57 913d 1b9f 55bd 117a 133d b0e0 9bbd
000002d0: befc c1b9 6212 b93d 9e25 163d d817 993d
000002e0: 5827 9c3c 6ae9 c7bc 66dd 343d 7ee7 f73d
000002f0: 46b5 d9bc af3c c33d e637 e8bc 8833 4dbd
00000300: 1044 8fbd 855c c8bc 4332 893d 5a86 ae3c
00000310: 7027 463d 339a 5ebd c86c 933c e883 96bc
00000320: 97a7 f5bd 9e95 59bd b2ca 763d c96e ac3d
00000330: fc6e f9bd abfb 9bbd b888 afbd 3c63 283c
00000340: 06ba 6dbd daef d13d cc62 483d 72cd 393d
00000350: e9d8 c3bd 3ba3 413d aba1 25bd b01b 81bd
00000360: 3f85 633c 7622 8bbb 75a3 2c3d 9592 f2bd
00000370: 33c3 f13c 0467 e83c 1d6a 9ebd b9f6 aabb
00000380: 4723 4fbd e159 c3bd c6c2 d1bc 7b10 febc
00000390: bce4 f73d f289 92bd ebd3 9d3d 49cd b43b
000003a0: 9b87 fcbb e1ae f9bc 2ec9 7d3d 4f10 17ba
000003b0: c550 073e a2df 4cbc 4425 b5bd 0999 8abd
000003c0: 2967 acbd 4356 a03d 3364 94bd 001b 2c3d
000003d0: 6511 053d 2bfc 23bd 1b38 d13d 3b91 bd3d
000003e0: 78c5 b13d 8c0f a1bd e30c b93d a8aa 0cbd
000003f0: ede7 2f3d 83b7 593d 9e8b 62bc 4855 50bc
-0.0038512694 0.041254908 -0.02019083 0.023584312 0.02188186 -0.045054663 0.12277035 0.09937037
0.03435377 0.08509338 0.0009508521 0.08732395 -0.107333146 0.02333764 -0.04575073 0.103184745
-0.01170992 0.012417433 -0.11174268 -0.098417245 -0.1097309 0.11358006 0.039636657 -0.042296324
0.031863265 -0.11756369 0.07854174 0.11130305 -0.0154922595 -0.04901317 0.07445187 0.022681557
0.009709805 0.02414775 -0.09068296 0.100317605 0.08362297 -0.10369135 -0.094455265 0.07491675
-0.018661164 0.046196226 0.025001759 0.051609244 -0.05463874 -0.08694474 -0.05033839 -0.048521277
0.09245335 0.07662321 -0.0054839393 -0.051463146 -0.0024594476 0.027290685 -0.06586737 -0.05166711
-0.06761916 -0.05256877 -0.007739929 0.039591875 -0.007200448 -0.08347381 0.12486676 0.08125914
0.010692621 -0.01716778 -0.0059661753 0.016290812 -0.045015894 -0.06389691 0.06511676 -0.062400326
0.012545255 0.11537061 -0.122174196 -0.10587678 0.03492751 0.035110537 -0.08166271 0.08652193
0.12200718 0.02973614 0.011335324 0.058065053 0.116702065 -0.10736512 -0.07444447 -0.041675616
-0.029946832 -0.0024106852 0.07598244 -0.09067689 -0.06458526 -0.1229917 0.11013316 0.081587434
-0.08402791 -0.01788235 0.007388367 0.10819293 -0.11485113 0.11309019 -0.04652515 -0.044089567
-0.06283556 -0.089389905 0.03781044 -0.050772797 0.020251846 -0.1048385 -0.038179662 -0.04774362
-0.078591704 -0.07396818 -0.11608149 -0.010515438 0.07439464 0.08197617 -0.046349313 -0.10203009
0.011336244 -0.01790969 0.106389865 -0.036268156 0.078158945 -0.09237891 0.08959411 -0.091167256
-0.049325798 0.014246129 0.024268888 0.11867681 -0.07042609 -0.115988605 -0.022182483 0.08003947
-0.025768194 0.0896523 -0.008161344 0.07337394 -0.06357127 0.04722811 0.036738187 -0.10587549
0.057652522 0.09151533 0.049993657 0.085357405 0.016084028 -0.012182717 -0.07530154 -0.06957396
-0.0761615 0.081791855 0.0069996435 0.04739993 -0.10539053 -0.031849578 -0.106008776 -0.07150787
-0.09773332 0.059194174 -0.06047707 0.07786298 0.05875803 -0.032030735 0.04549809 -0.046395995
0.04438666 0.061123587 -0.03629358 0.03850883 -0.11756478 -0.022204295 -0.08204296 -0.076456666
0.07096824 -0.052153688 0.036005083 -0.07611215 -0.00037000136 0.09036709 0.03665697 0.07475251
0.01906173 -0.024403293 0.044156455 0.121047005 -0.026575696 0.09533059 -0.028346967 -0.050097972
-0.06995404 -0.02445818 0.0669904 0.021304298 0.048377454 -0.054346275 0.017996207 -0.018373445
-0.11994856 -0.0531212 0.0602519 0.08419568 -0.12179372 -0.07616361 -0.08570999 0.010277566
-0.058038734 0.10250826 0.048922345 0.045361944 -0.09562857 0.04727481 -0.04043738 -0.06304109
0.013886749 -0.0042460514 0.042148072 -0.118443646 0.029512024 0.028369434 -0.07735083 -0.0052174
-0.050570752 -0.095386274 -0.02560557 -0.031013718 0.121041745 -0.07155217 0.07706436 0.005517636
-0.007706595 -0.030478897 0.061959438 -0.0005762623 0.13214405 -0.01250449 -0.088449985 -0.067674704
-0.08418114 0.07828953 -0.07245674 0.042017937 0.03248729 -0.040035408 0.102157794 0.09256216
0.08680242 -0.078642935 0.09035661 -0.034342438 0.04294579 0.053153526 -0.013827233 -0.012715645

fc2.bias f4 [64]
00000000: ccdd 123d 32b1 d6bd 0fe5 d93d 34ae 70bd
00000010: c5d8 d2bb e325 8b3d d529 2a3d aaf5 64bc
00000020: 8930 8f3d bc7b c9bd 3a99 69bc ed54 26bd
00000030: 9f2c 56bd 0ece 9b3d e9b6 70bd ce2f 6d3d
00000040: 36f0 bfbd b8f9 623d 9d6d d53d 178a f0bd
00000050: 134a 9dbc 70e9 d83d 0658 edbc ff8d 5dbc
00000060: 934c ab3d d262 febc 7e63 c63d 623d 7c3d
00000070: cc0c f5bd 12ed 8e3d 2382 953d 1861 d3bd
00000080: 290e d9bc bdc7 83bd a8d8 e7bd 84a7 8fbd
00000090: a16d a4bc 2cbe 8d3d db74 863d e2e2 e7bd
000000a0: f19e 4bbd 0f7b 48bd d0fc d8bd d0bc 8c3c
000000b0: f972 03bd 5967 36bd 780b e5bd 09b5 623d
000000c0: 4262 e8bd 8dd5 8abd a5bb 923d 999c 983d
000000d0: a795 f93d 9df4 9f3d 8065 69bc 10d5 34bd
000000e0: 57da e83c cbbf 6ebd a849 b2bc 9c54 54bd
000000f0: 7872 91bd 0c52 7f3d 556c d0bd cf4c df3d
0.035856053 -0.10483016 0.106393926 -0.058759883 -0.0064345323 0.06794336 0.0415438 -0.0139745865
0.06991679 -0.098380536 -0.014257723 -0.040608335 -0.052288648 0.07607661 -0.058768187 0.05790692
-0.093719885 0.05541393 0.10421298 -0.117450885 -0.01920036 0.105914 -0.028972637 -0.013522624
0.08364215 -0.03105298 0.096869454 0.061581977 -0.119653314 0.06978811 0.07300212 -0.103212535
-0.02649601 -0.064345814 -0.11320621 -0.07014373 -0.020071806 0.06921038 0.06565257 -0.11322571
-0.049712125 -0.048945483 -0.10595095 0.017179877 -0.03209207 -0.044532154 -0.11183828 0.05534843
-0.11346866 -0.06779013 0.071646966 0.07451744 0.12186747 0.07810328 -0.014245391 -0.044148505
0.028424425 -0.058288377 -0.021763638 -0.051838502 -0.07101911 0.062334105 -0.10176913 0.10903322

fc3.weight f4 [64, 64]
00000000: d420 dcbd df82 bebd 0b6e 6dbb b733 fbbd
00000010: 1ce6 c8bd 57e9 c33d 3328 42bd 56ce d13c
00000020: f065 f13c 0ac9 f1bd 5d6f dfbd eba9 bebd
00000030: 2415 82bd 8522 203d 415e 043c da11 ab3c
00000040: e04e fd3c d9c7 eb3a d313 8b3d f3c0 b23d
00000050: 69d0 c13d adc3 f4bd 961e c1bd 8aeb 58bd
00000060: 444a 793d c99f 48bd c837 f03d 6fe7 c53c
00000070: d26e 923d 43df afbc 0975 f13c f9ef a0bc
00000080: 8fb5 023b 1660 88bd dfab e5bd c6ed 8cbc
00000090: d152 923d e0c3 5b3d 620e 0a3d 73df e9bd
000000a0: 6dbd 823c 0729 f43d 8299 40bd 5357 54bc
000000b0: f60d 853d 8b6b 97bd 145d aabd 4bc0 5fbd
000000c0: aef6 cb3d 8811 e1bd 203c 70bd 8a3b 073d
000000d0: efcb b83d 7924 f13d f31c e43c 8c00 02bd
000000e0: 37a5 cf3c 2b41 aebd 893f 973d dd90 debd
000000f0: 15c2 863d bea9 a9bd 172b e7bd 3254 c23d
00000100: 2781 77bc db4d 25bd 02e2 50bd 28a8 5bbc
00000110: a4b6 9d3d 5c68 b83d 4bbc e0bc 1c1a 27bd
00000120: 4cae c63b a6b4 b63c e96b bdbc 5ebe 52bd
00000130: 660a d53d 6412 2e3d 5147 ce3d 64c6 88bd
00000140: 639b 1ebd 1da2 2d3d f5b7 b3bc abad d53c
00000150: 2521 883c ac23 b5bd a8bc d3bd 03bc 2cbd
00000160: 293a f63d 7e31 103c 2763 8e3d 3697 8e3d
00000170: 3f30 3ebd 5f7d 94bd c006 a43b 6bac 063e
00000180: fd06 a5bd 892c 4c3d b710 aabd c055 803b
00000190: 7a77 a33d 97d9 4cbd 221b 38bc df6d cdbc
000001a0: 9458 f33d d683 aebd 0514 013e 1513 b5bc
000001b0: 1831 dabd 93e9 b03c e269 8abd f7d6 4cbd
000001c0: 4c87 9fbd 3291 17bd ed6d e53d 514a c8bd
000001d0: 5206 96bd dbbb bb3d d994 11bd 020e 81bd
000001e0: 8af5 e23d d2ae df3d fec8 85bd b187 ec3c
000001f0: 7d12 d4bd 0fa8 edbd bfc0 24bc 4fb4 b13d
00000200: a6e1 893d 3f89 7f3d 5f95 fcbd 2397 243d
00000210: c7fc 67bd b861 87bc 3c2b 0dbd 5aab e4bc
00000220: 1bc2 fabd 74e8 33bd b992 ab3d 836f 433c
00000230: e68a 893d 3c9d 19bd 55db d2bd 0236 633d
00000240: 1f15 973d f411 883c c7cd 443d eb62 b5bc
00000250: 4ae9 4d3d 2b12 3dbd 8040 853b f2d2 4cbd
00000260: 62cb 8a3d 355c d0bb 8900 db3d b180 06bd
00000270: 079f d5bd 915b c6bd 9384 703a 1f17 35bd
00000280: 8590 efbb eab1 e63d 17f0 263d 0663 df3d
00000290: b159 a5bd 1355 db3d 67f4 dbbc 222c 9e3d
000002a0: 97bb 9d3d 283a 883d 47c7 98bd 6e9f f53d
000002b0: 4a1d a33d 11b4 dfbd 9faf a2bd c156 ef3d
000002c0: 74e6 89bd 7684 353d 25eb 8b3b d067 c03d
000002d0: e148 a23b 53ff b2bd 2972 b63c 2b58 de3d
000002e0: 8162 f23d e390 90bd bdd2 653d e42c 21bd
000002f0: 22d3 4cbd 4018 a6bd 5181 76bd b8a1 ea3d
00000300: ff27 fe3d 9abf 523d ab16 a0bd 700d f83d
00000310: 8819 823d 92a6 bcbd af0e 27bd 8b4b c4bd
00000320: e817 353d 2087 31bd 91e9 dc3d ff80 d5bd
00000330: 81fe 83bd 46fe 9f3d 253f c93d 825c bf3d
00000340: f37d bcbc c622 033d 7d6e 2cbc 9033 55bd
00000350: 4f59 243d 0091 81bc d9e4 ccbd efd8 f23c
00000360: c4c2 babd 8ebc a8bc bfc6 a7bd 308c ec3d
00000370: 066d 9dbd b206 03bd bbd4 91bd a2c9 db3d
00000380: 3bb1 913d 3da5 bc3d 0f79 28bd 7184 5d3d
00000390: 5757 9e3d 58e2 f23d 92c7 cd3d e811 773c
000003a0: 1674 e1bd e13c 603d 229e 47bd 0f49 14bb
000003b0: 4f39 ce3c 6aae 163c 98e3 963d d3a4 063d
000003c0: 44ae f53c c401 4f3c 3abd 1bbd de54 9ebd
000003d0: 125e 2c3d 1336 80bd 94b9 6e3d 35c1 fe3d
000003e0: 0864 aebc 6f5a 22bd abc7 1b3d baf9 cbbd
000003f0: 44a9 6d3d 644d 41bd 41ff f7bd cf2a 2dbd
-0.10748449 -0.093023054 -0.003622892 -0.12265723 -0.09809515 0.095659904 -0.04740162 0.025611084
0.029467553 -0.11805923 -0.10909913 -0.09309753 -0.063516885 0.03909542 0.0080791125 0.020882536
0.0309214 0.0017988636 0.067908905 0.087282084 0.09463579 -0.11951385 -0.09429662 -0.052959003
0.06086184 -0.048980508 0.117293894 0.024158208 0.071500435 -0.021468764 0.029474752 -0.019645678
0.0019944643 -0.06658952 -0.112144224 -0.017203223 0.07144702 0.053653598 0.033705123 -0.11419573
0.015959466 0.11921888 -0.047021396 -0.012960273 0.064968035 -0.07393559 -0.083185345 -0.054626744
0.0995916 -0.10989672 -0.05865109 0.033015765 0.09023272 0.11774535 0.027845835 -0.031738803
0.025347335 -0.085085236 0.07385165 -0.10867474 0.06579987 -0.08284329 -0.112875156 0.09488715
-0.015106476 -0.040357452 -0.050996788 -0.013406791 0.077008516 0.0900428 -0.027433535 -0.040796384
0.0060632583 0.022302937 -0.023122745 -0.05145108 0.10402374 0.042498007 0.10072196 -0.06678465
-0.038722407 0.04239093 -0.021938303 0.026083788 0.016617367 -0.088446945 -0.10338718 -0.04217149
0.12022812 0.008800862 0.069525056 0.06962435 -0.04643273 -0.07250475 0.0050056875 0.1315171
-0.080579735 0.04984716 -0.08303969 0.003916472 0.07981773 -0.050012197 -0.011236938 -0.025076805
0.11882129 -0.085212395 0.12605293 -0.022103826 -0.10653895 0.021595752 -0.06758477 -0.050009694
-0.07789478 -0.037003703 0.11202607 -0.097798 -0.07325424 0.0916669 -0.035542343 -0.063015
0.11081989 0.10922016 -0.06532477 0.028873296 -0.10355089 -0.1160432 -0.01005572 0.08676969
0.06732492 0.062386747 -0.12333178 0.040183198 -0.05663755 -0.016526088 -0.03446506 -0.027913738
-0.12244054 -0.043922856 0.083775945 0.011928442 0.06715946 -0.037503466 -0.102957405 0.055471428
0.073770754 0.016610123 0.048047807 -0.022141894 0.05027131 -0.046159904 0.004066527 -0.05000586
0.067770734 -0.006358648 0.106934614 -0.032837573 -0.10430723 -0.09685434 0.00091750285 -0.044211503
-0.0073109292 0.11264403 0.04075631 0.10907559 -0.08073748 0.10709586 -0.026849939 0.077232614
0.077017955 0.066517174 -0.07459884 0.119932994 0.07964571 -0.10923017 -0.07943653 0.11686469
-0.067334086 0.044315778 0.004269975 0.09394801 0.0049525355 -0.087401055 0.022271233 0.108566605
0.118351944 -0.07058885 0.05610918 -0.03934945 -0.05000604 -0.08110094 -0.06018192 0.11456627
0.124099724 0.051452257 -0.078168236 0.12111938 0.06352526 -0.09211458 -0.040785488 -0.09584721
0.044212252 -0.043341756 0.10786737 -0.10424995 -0.06445027 0.07812171 0.09826497 0.09343816
-0.023009276 0.032015584 -0.010524389 -0.052051127 0.040124234 -0.015816212 -0.10004587 0.029644458
-0.0911918 -0.020597722 -0.08192205 0.11550176 -0.0768681 -0.031988807 -0.07120653 0.10731818
0.07113882 0.09211204 -0.041131075 0.054081384 0.077315025 0.11859578 0.10047831 0.015079953
-0.1100847 0.05474556 -0.04873479 -0.0022626554 0.025173811 0.009196857 0.07367629 0.032872032
0.029990323 0.012634698 -0.038022257 -0.07731031 0.0420819 -0.06260314 0.05828245 0.12439195
-0.021287933 -0.039637025 0.038032215 -0.09959741 0.058022752 -0.047192946 -0.12109233 -0.042277154

fc3.bias f4 [64]
00000000: 72ab 22bd 616a 80bd 75f6 1dbd 43ce e1bd
00000010: cf48 d8bd e592 21bd d421 783d 27e8 99bc
00000020: 28f9 f7bd 1052 913b 5dd7 dabb 85a0 e1bd
00000030: 36f7 86bd 9d4b e03d 97ef c8bd 0d05 eebd
00000040: c4ce 9a3d c24c cfbd 6e04 88bd efbf 1abd
00000050: 26ae a93d 956a acbd ad32 01bd 15aa 813c
00000060: a637 9abd 301a 05bd 3dc0 3a3d 6c0f 86bd
00000070: 500a 54bd 9f54 973c d976 5a3c a084 b33d
00000080: 2ac4 1b3d 287f dabd d4ca 133c 2991 d1bc
00000090: e1f1 2cbd 5f02 1c3c 7227 4f3c cede b3bd
000000a0: 438d afbd 5d70 3fbd 41bf 3ebd b831 cabb
000000b0: 038f 4f3d 11a2 d1bd 55ad e3bd 7162 d0bd
000000c0: b9e4 f43b fed4 34bc 26e1 4e3c f90e 563d
000000d0: f66a 59bd 8048 a93d d22a e3bc 4ea6 61bd
000000e0: 6d7a cfbd 3068 533d c802 a0bd 5bae e63d
000000f0: a015 ea3d daf8 6abd 2e34 e3bd 775a dbbc
-0.039714284 -0.0627029 -0.038565118 -0.110256694 -0.10560762 -0.03944673 0.060579136 -0.018787457
-0.1210807 0.0044348314 -0.0066785053 -0.11016945 -0.065901205 0.10951922 -0.09811323 -0.11622057
0.07558969 -0.10122062 -0.0664147 -0.0377807 0.08285169 -0.084187664 -0.03154247 0.015828172
-0.07530145 -0.032495677 0.04559349 -0.0654591 -0.051767647 0.018472968 0.013334 0.087655306
0.038028874 -0.106687844 0.009020526 -0.025581913 -0.04222286 0.00952205 0.012643682 -0.08782731
-0.085718654 -0.046738017 -0.046569113 -0.0061704777 0.050673496 -0.1023599 -0.11117045 -0.10175026
0.007473555 -0.011037109 0.012626922 0.052260373 -0.05308052 0.082657814 -0.02773038 -0.05509024
-0.10130773 0.051613033 -0.078130305 0.112637244 0.11429906 -0.05736623 -0.11093937 -0.026776535

fc4.weight f4 [64, 64]
00000000: e39d c13d 6fc5 d63d be56 c9bd 0edb b63d
00000010: add9 493d 8a47 8ebd feb5 fdba 9bec 483d
00000020: 2c4e cabd 504e 1d3d 174c 12bd 0ef7 98bd
00000030: 4852 c6bc 6f04 e43d 63f3 1e3b b164 73bd
00000040: 2433 033d d6b2 2ebd 605d 84bd f3c0 e2bd
00000050: 2b40 bfbd 567f 453b 178c 133d 5fc7 cbbd
00000060: 5289 a6bb e523 80bd 9678 ccbd fabf 8c3d
00000070: 63db 233c 0025 9d3c ab5f c8bb e45b c73d
00000080: 3124 d03d 25b6 16bd 473e 72bd bf8d 023d
00000090: 6c09 c5bd 8ccf a73c d85a a33d 4872 073d
000000a0: 58ae edbd f8f7 bfbd 745d 45bd d0a1 ac3d
000000b0: 1f5f bdbd ee3a 2b3d 8493 a5bd 4412 803d
000000c0: 749a 343d a86e 393d 37e2 a1bd 9817 1c3d
000000d0: 2573 ae3c f6ac 963d c442 a13c 4ac9 db3d
000000e0: 2725 b03b a4f5 e3bd a096 e5bc 184a b2bd
000000f0: 94df ac3b 6f38 c7bd b061 873c baf6 e83d
00000100: 4f86 a7bd 6361 98bd 23b3 e23d d6de b7bd
00000110: 9013 b9bd 9819 4c3d f81b c0bd 4560 65bd
00000120: d986 683c 1597 babd 3d6c 343d 7532 adbd
00000130: b526 0b3d 8a11 a2bc 861b 7d3d f471 f3bd
00000140: fe5f febd dc16 dabd bdee bfbc ce1d 9dbd
00000150: 6e29 fe3d 7b83 62bc 9033 f6bd f7a0 4c3d
00000160: b37c a83c 0c43 0e3d 887c 503d ef79 ce3d
00000170: 4ba4 c1bd 3b25 6ebc 4c85 33bd 2f10 84bb
00000180: 486d 63bd ddb9 1aba 7173 96bd d76e f0bd
00000190: a5fa a3bd d561 8c3d 890d 55bd 27b2 e63d
000001a0: ae9f 2a3b 8562 293d 2e75 af3d 2576 08bd
000001b0: aee2 3c3d 6140 a6bd 3bb9 81bd f4cc f5bd
000001c0: ada4 bd3d 62b4 b8bd 4147 f73d bea9 7a3d
000001d0: 10c7 e83d 2ec0 eabc 22ca 05bd 64cf 5cbd
000001e0: 2d2f bfbc 83a7 723d d49e a0bc be34 c03b
000001f0: 353d dbbd 52b4 afbc a0d1 f9bd 4eaf febd
00000200: 86c5 103d de9a 9e3d 4ff3 21bd 040b b43d
00000210: 8155 d3bd 7e46 a5bd dcc4 7d3d e47b dabd
00000220: f6f1 b3bd 592d cabd 4efe 42bd 6d9c 5abd
00000230: a32e e8bd 6f89 063d a189 f8bd ea18 a73d
00000240: e7b1 fe3d 71da d23d 2e7d ddbd b8bb 993d
00000250: a66b c93d 77c4 673d b899 65bb 4857 b83d
00000260: 2bcc ee3c 0837 89bd 38c7 b1bd a132 8b3b
00000270: fab3 8a3d 1b9f a8bd 4136 c5bc 895f eb3d
00000280: 042b d4bd 3f8e 773d 70f8 c6bd cdfe fcbd
00000290: a22b 9c3d 9ee2 7bbd 6f5c 8cbd 33d1 b63c
000002a0: b842 17bb 79c0 cc3d bd71 e33d cd93 843c
000002b0: 0719 613d 29e0 723d 1612 ab3b 9da7 9ebd
000002c0: cb81 643d 4e06 113d f114 b0bd e4ef b0bd
000002d0: 9ec9 02bd d539 b0bd 0a99 f13d a626 4dbc
000002e0: d12a e33d e8d1 d7bc 391f ebbd e867 c33d
000002f0: aa76 d23d ecc4 c6bd b5d8 53bd ad58 2abc
00000300: c3a0 993c f768 a33d 78e4 ba3d 3723 66bd
00000310: 0539 123d a458 af3d d59b c23d 0d77 c83c
00000320: 4e3b 003e a395 c53c 9441 ddbd 3a2e aabc
00000330: 12dd c03d a6c8 dc3d 8efe 183c 03ee 913d
00000340: 22c2 77bd 5c10 0a3d 5b6b a93d bc1a 28bc
00000350: da84 fd3d 3f61 943d 8916 87ba d700 243d
00000360: 9f72 87bd 63a8 87bd 0f18 f1bd 38dd 61bc
00000370: 76a3 84bd 0be2 30bd 3d41 983c 8ef0 10bd
00000380: f3a5 dd3d 3811 afbd 0b8f 8c3d c2de 083d
00000390: 5d0a 113d 7d18 eabd b7a5 003e 2310 77bd
000003a0: e995 af3c b8f7 4cbd 6751 093d d608 cb3d
000003b0: d675 e6bd 98ca 5bbd 3e3e e43d ede2 c0bd
000003c0: 0dc6 81bd a527 0bbd 4ed7 1c3d 9352 8abc
000003d0: ba52 aa3b 9bc2 81bd 3935 72bd 22a5 9a3d
000003e0: a639 863d 09b4 1fbd 48e6 47bd 21b0 573c
000003f0: c027 853d 9ec5 493d 000d cebd 9faa 60bc
0.094539426 0.10486876 -0.09830998 0.089285 0.049279857 -0.06947239 -0.0019356606 0.04905377
-0.09878191 0.038404763 -0.035717096 -0.07468997 -0.024209157 0.11133658 0.0024253957 -0.0594222
0.032031193 -0.04265102 -0.06463122 -0.110719584 -0.09338411 0.0030135713 0.036022272 -0.099501364
-0.005082288 -0.06256846 -0.099839374 0.06872554 0.010001036 0.019182682 -0.00611492 0.097343236
0.10163153 -0.0367948 -0.059141424 0.03187346 -0.09620938 0.020484708 0.079763114 0.03306797
-0.11605519 -0.09373468 -0.048184827 0.08429301 -0.092466585 0.041804247 -0.08084777 0.06253484
0.04409261 0.045271546 -0.07904475 0.03810844 0.02129514 0.073572084 0.019685157 0.10731752
0.0053755227 -0.111308366 -0.028025925 -0.087055385 0.005275676 -0.09727561 0.016526073 0.11375184
-0.08179914 -0.0744045 0.11069324 -0.089780495 -0.090369344 0.049829096 -0.093803346 -0.056000013
0.014192306 -0.09110848 0.044048537 -0.084568895 0.03397246 -0.019783754 0.061793827 -0.11886969
-0.12420653 -0.10648891 -0.023429269 -0.076717004 0.12410246 -0.013825293 -0.120215535 0.049958196
0.020567274 0.03473191 0.050900012 0.10081851 -0.094551645 -0.014535244 -0.043828294 -0.0040302495
-0.05552414 -0.00059023296 -0.073462375 -0.11739891 -0.08006791 0.068545975 -0.05201486 0.112644486
0.0026035118 0.04135372 0.08567272 -0.033315796 0.046114616 -0.08117748 -0.06334158 -0.12001982
0.09259925 -0.0901878 0.120741375 0.061197035 0.11366093 -0.028656092 -0.032663472 -0.05390872
-0.023337925 0.059241783 -0.019606985 0.0058656624 -0.10705034 -0.021448288 -0.12198186 -0.124357805
0.035344623 0.07744382 -0.039538678 0.087911636 -0.10319043 -0.08070086 0.061955318 -0.106681615
-0.08786385 -0.09871931 -0.047605805 -0.053371836 -0.1133702 0.03284591 -0.12135626 0.08159049
0.12436276 0.10295571 -0.10814892 0.07506508 0.098349854 0.056583848 -0.003503425 0.090010226
0.02915009 -0.066999495 -0.08680576 0.004247979 0.06772609 -0.08233472 -0.024073722 0.11492831
-0.10359767 0.06043839 -0.097153544 -0.12353287 0.0762551 -0.061495416 -0.06853568 0.02231655
-0.002308054 0.09997649 0.11105678 0.016183758 0.05495551 0.059295807 0.005220662 -0.077468134
0.055787843 0.035406403 -0.08597744 -0.086395055 -0.03193056 -0.086047806 0.11796768 -0.012521422
0.11092151 -0.026345208 -0.114805646 0.09541303 0.102765396 -0.097055286 -0.05172034 -0.0103971185
0.018753415 0.07979005 0.09125608 -0.056185927 0.03569891 0.08561829 0.09502379 0.02447083
0.12522623 0.024119204 -0.10803524 -0.020773996 0.09417166 0.10780458 0.009338034 0.07125475
-0.060487874 0.033707008 0.082724296 -0.01026028 0.12378855 0.07245111 -0.0010306399 0.040039863
-0.06613659 -0.06623914 -0.11772167 -0.013785653 -0.0647649 -0.04318432 0.018585796 -0.03538566
0.10822668 -0.08548206 0.06863221 0.033415563 0.035410274 -0.11430452 0.12563215 -0.060318124
0.021433787 -0.05004093 0.033524897 0.09913795 -0.11252944 -0.053660005 0.11144684 -0.09418283
-0.06336603 -0.033973355 0.038291268 -0.016885078 0.00519785 -0.06335946 -0.05913279 0.07551028
0.06553964 -0.038990054 -0.048803598 0.013164551 0.06501722 0.049260728 -0.10061073 -0.013712554

fc4.bias f4 [64]
00000000: 9454 69bd c3bb 933d 87cc 713c f7bb 99bd
00000010: a670 48bd 2acf babd 3c29 c8bd 678a 653d
00000020: dec1 213d 385c e4bd 59dc 2cbd a289 e23d
00000030: c7b3 ce3d c55f 63bd 4b95 adbd e313 cdbd
00000040: 0da7 1c3c 1902 fcbc 8a18 04bd 2345 bcbd
00000050: 9da0 47bc 9f5a cc3d 0f1e a43d 53be cebc
00000060: a8ea 033d b352 edbd 349d 21bd a5c0 91bd
00000070: 3108 b6bd 6cf3 be3d eea3 58bd dc0f fd3d
00000080: d81e e63d eade 93bd 3dc7 5c3c 1c5b 9f3d
00000090: a06b 70bd d813 b0bc 6993 083d 2541 cebd
000000a0: 729e f73d 5be5 d3bd a484 b83d fc1d 3c3d
000000b0: 8270 73bd a264 2d3d 87ce 2bbc 222d 72bd
000000c0: 1d2e e93d c359 69bd 0044 ccbc 0b07 2abd
000000d0: 5054 26bd a7d5 61bd 98d8 d8bd 08ed efbd
000000e0: 3a68 09bd 5373 c23d 991b c53d 66a6 a23c
000000f0: b94d fdbc 248b d13d 1c66 d13b f183 94bd
-0.056965426 0.07213547 0.014758236 -0.075065546 -0.048935555 -0.09121545 -0.0977349 0.056040194
0.039491527 -0.11150402 -0.042202327 0.110614076 0.100928836 -0.055511255 -0.08475741 -0.10013559
0.009561312 -0.030762719 -0.032249965 -0.09192874 -0.012184289 0.09978222 0.08013546 -0.025237238
0.032206208 -0.11588039 -0.03945656 -0.07116822 -0.08888281 0.09323773 -0.05289071 0.123565406
0.11236352 -0.07220252 0.0134752365 0.077810496 -0.05869639 -0.021493837 0.033343706 -0.10071019
0.12090768 -0.103464805 0.09009674 0.045927033 -0.059433468 0.0423323 -0.010486252 -0.059125073
0.113857485 -0.05697037 -0.024934769 -0.041510623 -0.04060775 -0.055135395 -0.10588187 -0.11715132
-0.033546664 0.094946526 0.096244045 0.019854736 -0.03092085 0.10231617 0.006390346 -0.07251728

fc5.weight f4 [64, 64]
00000000: da2c d4bd 58ba b63d c12d eabc 1d32 833b
00000010: 3acf 06bc 7372 463d 1b33 efbd 3689 48bd
00000020: 8ff4 c6bd 5f65 123d 694f a03d 3c91 e53d
00000030: 12ef db3d 8d47 f13d b00b c6bd cb0d 13bd
00000040: 8287 9cbd 4df1 ba3d aa9e 2e3d 2c66 b3bd
00000050: 6b42 89bd 1ca2 ecbd 66f2 a9bd 2644 99bd
00000060: fa70 633d 5ffd cbbd 7a74 90bc 569d 6f3d
00000070: 0aef fb3d 73de 7e3d b834 55bb 2cb5 b9bb
00000080: e8e6 debd 384f b9bd 9e85 673c a1a7 e43d
00000090: 853c 11bd 6941 9abd 68a5 8bbd c025 ee3d
000000a0: 8d4c cfbc 836c 09bd adf9 0ebd d31a 543c
000000b0: 1c70 c3bd 79cb 4b3d 2018 163d c46f e9bb
000000c0: 2575 aa3d ebf3 9d3c d611 7c3c 8d62 413d
000000d0: c35c ddbd 6664 fabd 7b37 65bd 7756 aa3d
000000e0: 9b92 e9bd 53d6 22bd 66b6 cabd 0c3b 3dbd
000000f0: 68c7 ec3d 7ced 0ebd ed82 eb3d 853b e8bd
00000100: 2c28 e9bc 00fe dcbd 91e5 e73d 097b fe3d
00000110: 6ffa 863d e63a 043d eed9 0c3d 70e9 2abd
00000120: 45f6 d7bd 8a83 01bd fd9c ecbd 4f5b e5bd
00000130: 3ebe 32bd 6dc3 05bd 890c a3bd 109c 25bd
00000140: 0332 973d 24dc cc3c 4b00 77bd da8c a7bb
00000150: 87fe c13d 9874 c63d b09d d0bd e4fb 8bbd
00000160: c5aa 413c ae12 f7bd f16e d2bc dc9d 9c3d
00000170: 5f53 b43d 1bee ee3c 65d5 a5bd 53a3 a53d
00000180: 8b8d 24bd 73d8 9b3d 1908 003e e993 cc3d
00000190: 64b9 e23d fc66 b83c 5cb6 b63c ba24 803d
000001a0: 6430 363c 8c29 b93c 854d 093d f8a6 b2bd
000001b0: 500e 303d 5d8d 97bd 5002 823d 83cd 96bd
000001c0: 1f69 01be 2330 b9bd 4f0d b8bd 3e84 dc3d
000001d0: 764d 8fbd 4330 af3d dbf7 66bd 3e31 a63d
000001e0: ba85 a6bd a46a b13d 11cf e9bb 17aa a93c
000001f0: 148e 05bc 74de 3abd f37e f0bc 0318 9f3d
00000200: d5bb a4bd a887 4ebd 0ba8 453d b7ef c7bd
00000210: 9d1c 98bd 22e6 bd3d ba47 8dbd 131b db3d
00000220: 50ef 3abd 7aef 183d af93 bbbd 1c14 e0bd
00000230: a9f6 a8bd eb74 483b 7841 b4bd 3635 92bd
00000240: 0161 d4bd 906b 03bd 5e10 273c fe0a 7abd
00000250: 9a93 d4bc f851 98bd 653f 843d 747c 2d3d
00000260: f97a 3f3d 88df 013d 9e85 8dbd 2ba9 aabd
00000270: 2ef4 4dbd 49ba b33c f4b6 1ebd 7872 beba
00000280: cdab 22bc a21d 853d 67de 8fbd 0873 b83b
00000290: 1950 f5bd 5f02 9f3d ce73 aabd 4bf2 98bd
000002a0: 9a51 21bd fcfd 41bc 451d d73d 9651 bfbd
000002b0: da8d 893d 6f88 70bd 4258 f53d 7b3d d6bd
000002c0: 5c29 87bd 6aca 7c3d 91dc f73d d2c8 293c
000002d0: b028 74bc c111 423d 7087 03bc e57b 233d
000002e0: 0bfd c0bd 8645 fdbd 6ee9 d43d 1cfb 213d
000002f0: 1ef5 dbbd 0c8c 223c d1c2 e23d da6e 4bbc
00000300: 53aa cebd e7e6 a03c f7f4 9a3d c7c0 e4bd
00000310: 39cd abbb 22da e4bd 980b c73d 872a cdbd
00000320: 599e b23d d81d 543d 8a3a 013e 5057 f53d
00000330: 6de2 76bb fd1f c03d 8a6d f9bc 2db4 7fbd
00000340: 3544 62bd 2dff f13d 33ed bebb 5b1b b4bc
00000350: 29bb 663d 8ac7 bb3d 9eda f2bc 09de 63bb
00000360: 4753 983d 2600 2a3c 6569 853d 3fa5 cbbd
00000370: 4850 473d 54f1 27bd d07d 383c a843 83bd
00000380: 90d8 b33d 2c42 fd3d e9b6 89bd f0d3 e23d
00000390: 10c2 743d 00de 45bd 7d84 ca3d 4477 b5bc
000003a0: a5bc ce3c 2fe2 863c d9d6 db3c 8d9a 483d
000003b0: a452 9d3d 7320 9c3d 3ef1 a4bd 85a6 823d
000003c0: e67c 803c 709c 053d 71a6 b63d 3714 8fbd
000003d0: 02f9 223d a948 8abc 924b c8bd 1706 fc3d
000003e0: c51b 8fbc d469 c23d bdc1 cc3d 4238 ffbd
000003f0: e517 b0bd 2fa5 aebd 7ebc 8e3d ad6b dd3d
-0.10360117 0.08922261 -0.02858627 0.0040037767 -0.008228118 0.04844899 -0.116796695 -0.04895898
-0.097146146 0.035741206 0.07827646 0.11209342 0.107389584 0.11781225 -0.09670198 -0.035901826
-0.076430336 0.09128056 0.042631783 -0.08759722 -0.06702121 -0.115543574 -0.08298187 -0.074837014
0.055527665 -0.09960436 -0.017633665 0.058499657 0.123014525 0.062223863 -0.0032532644 -0.0056673493
-0.108838856 -0.09048313 0.014130978 0.11164785 -0.035458107 -0.07532007 -0.06818658 0.11628294
-0.025305057 -0.03355075 -0.034906078 0.0129458485 -0.095428675 0.049754594 0.0366441 -0.007123919
0.08323125 0.019281348 0.015385112 0.047213126 -0.108087085 -0.12226181 -0.055961113 0.08317273
-0.11404916 -0.039755177 -0.09898071 -0.04619889 0.11561471 -0.03489445 0.114995815 -0.113394774
-0.028461538 -0.10790634 0.11323083 0.12425811 0.06590735 0.032282732 0.03438752 -0.04172653
-0.10545019 -0.031619586 -0.11553381 -0.11199056 -0.04363846 -0.032657076 -0.07961375 -0.040432036
0.07382586 0.025007315 -0.060303014 -0.0051132264 0.09472375 0.09690207 -0.101863265 -0.06835154
0.0118205 -0.1206411 -0.025687667 0.07647297 0.08804964 0.029166272 -0.080973424 0.08087792
-0.04017405 0.07609644 0.12503089 0.09989149 0.11070517 0.022510044 0.022303753 0.06257005
0.011119936 0.022602819 0.033521194 -0.08723253 0.0429824 -0.0740001 0.06348097 -0.07363417
-0.12637757 -0.090423845 -0.089869134 0.10767411 -0.069971964 0.08554127 -0.056388717 0.08114861
-0.08130975 0.08662918 -0.00713528 0.020710988 -0.00815155 -0.045622304 -0.02935741 0.07768252
-0.080436386 -0.05042234 0.04825596 -0.09762519 -0.074273326 0.0927241 -0.068984464 0.10698523
-0.045638382 0.037337758 -0.09159028 -0.109413356 -0.08250172 0.0030587267 -0.0880155 -0.071390554
-0.103700645 -0.032085 0.010196773 -0.06104564 -0.025949288 -0.07437509 0.06457404 0.042355016
0.046748135 0.031707317 -0.06910251 -0.083330475 -0.050281696 0.021939414 -0.038748696 -0.0014529964
-0.009928656 0.06499793 -0.07024842 0.005628947 -0.11978168 0.07764124 -0.08322869 -0.07468089
-0.039384462 -0.01184034 0.105036296 -0.09341733 0.06716509 -0.058723863 0.119797245 -0.10460945
-0.065996855 0.061716475 0.121026166 0.010362821 -0.014902279 0.047380213 -0.008027896 0.039913077
-0.09423264 -0.12366776 0.10396086 0.039546117 -0.10740112 0.009921085 0.110723145 -0.012416566
-0.100910805 0.019641353 0.075662546 -0.11169582 -0.0052429703 -0.11174418 0.09719008 -0.10017877
0.08721609 0.051786274 0.12619987 0.11979544 -0.0037671581 0.09381101 -0.03044774 -0.06242769
-0.05524083 0.11816249 -0.005826616 -0.0219857 0.056330834 0.091689184 -0.02964526 -0.0034769794
0.07437759 0.010376012 0.06514243 -0.099436276 0.048660547 -0.041001633 0.011260465 -0.06409389
0.087815404 0.12366137 -0.067243405 0.1107558 0.059755385 -0.04830742 0.098885514 -0.022151597
0.025236437 0.016465275 0.026835846 0.048975516 0.07681778 0.07623377 -0.08053826 0.06379417
0.015684556 0.032619894 0.08918465 -0.069862776 0.039788254 -0.01688035 -0.09780039 0.12305849
-0.017469296 0.09492841 0.0999789 -0.12461902 -0.085983075 -0.085276 0.06969546 0.10811553

fc5.bias f4 [64]
00000000: 41b0 423d 3c1b c4bc 8f33 e93d 8d76 4cbd
00000010: cbd1 93bd 59d3 fd3c 7328 e1bd e7de 8ebd
00000020: 3447 803d 20d1 f1bc 2e02 4b3d cea0 80bd
00000030: fe01 f93c 8c92 eb3d 505b a5bd 6ac3 17bc
00000040: 8468 8dba d49a ce3d 51fa c83a d09a b13d
00000050: 0e63 eabd 7f0b 9f3d 1cd5 ac3d 0c3c ef3d
00000060: c845 c63d d72d 35bd 0f45 fcbc 8762 da3d
00000070: 7c10 093d c3e5 eabd 53d0 be3d 45c3 623d
00000080: 1e2a e8bd 2b9e c9bd 7b4c 1fbd 9420 963d
00000090: 25b6 fdbd da2b c03d faca c23d a62f 643d
000000a0: e92a 033d 7046 c33d 012e d8bd 27b0 f0bd
000000b0: 0801 d8bd f866 4abc 2a9a 563d 11d2 18bd
000000c0: 1427 9abd da86 c6ba 33cd ab3d 2bc4 0cbd
000000d0: 061e f03c 7163 0c3d e538 dbbd 707f d0bd
000000e0: 8f75 ab3d c3c5 ccbd 9cdc f73d e6fc 9f3d
000000f0: 5368 39bd 91e6 203d 5c03 a33d f644 a1bc
0.04753137 -0.023938768 0.11386787 -0.049917746 -0.07217749 0.030984567 -0.10994043 -0.06976109
0.06263581 -0.029518664 0.049562626 -0.06280671 0.030396458 0.11502561 -0.08074057 -0.009262899
-0.0010788594 0.10088125 0.0015333389 0.08672106 -0.114446744 0.077658646 0.08439085 0.11681375
0.096812785 -0.04423317 -0.030794648 0.10663324 0.033462986 -0.11469605 0.093170784 0.055362005
-0.11336158 -0.09844621 -0.038891297 0.073304325 -0.12388257 0.09383364 0.09511371 0.055709504
0.032023344 0.09534919 -0.105556495 -0.117523484 -0.10547072 -0.012353651 0.052393116 -0.03730971
-0.07526985 -0.001514639 0.08388748 -0.034366768 0.029311191 0.034274522 -0.10704211 -0.10180557
0.08372032 -0.099986576 0.12102625 0.078119084 -0.045265507 0.039282385 0.07959625 -0.019686203

fc6.weight f4 [64, 64]
00000000: 5720 003e 8b12 c4bd 6c24 2cbc 89dd 87bb
00000010: f4e6 8cbd bf1e 853d 38d6 12bb 4855 b0bd
00000020: ca29 eabd b29a f63d b00d db3c 7891 d7bd
00000030: 6b89 903d 3127 d3bd b31e c43d 22c2 e3bd
00000040: bb78 d53c 69a2 b5bd 132e f93b 14a8 a33d
00000050: 3743 ccbd cf50 833d e09a 94bd eb5c 3dbb
00000060: 787f f4bc f918 5dbd dcf4 cebd e48c b6bd
00000070: ebb8 5e3d f44e 33bd 29e5 e13d efd3 533c
00000080: e6a6 e63d d344 f3bb ab08 eb3d 7d10 5e3d
00000090: 5d8c d9bc fef0 723b 0ca4 3d3a 98bb dbbd
000000a0: 1dff ac3d 36b8 aebd 18d7 75bd 8904 4abc
000000b0: 5ba9 dc3d 436e efbd 36f1 fe3d dfdf b23d
000000c0: d7dd 6a3d 8be7 2d3d fa56 d3bc fd5f 00bd
000000d0: 1d7d d73b 846c 323d 24d5 903d 0add fe3c
000000e0: 55a3 5abd 3c9f b3bd 412d 5f3d a997 35bd
000000f0: d152 de3d c893 83bd 9485 eb3d 72b0 803d
00000100: 24eb 013d fe60 23bc 6347 3bbd 8fc4 babb
00000110: 18c3 e83d 9dbe 1abd 6816 ab3d ae15 bb3c
00000120: d76c 95bc 34df 9e3c 9fb4 ca3d e30d eabd
00000130: e1f7 e53d 304d 153d 32c5 d53d 3728 d9bd
00000140: 3e39 cf3d 3471 b8bd 04a9 d93d eeaa cebd
00000150: 1091 f13b 6948 24bd 2050 31bc b72e 503d
00000160: 1215 9a3d 504a dd3d c107 673d 0061 e63d
00000170: 58dc a23d 89fa a7bc 0cc4 c0bc 71ee 963d
00000180: 8705 9abd 9da5 383d 12b7 d63d 4fe8 4fbd
00000190: 04cd 52bc 4f8a b23d 79b6 123d f258 cfbd
000001a0: 79b0 abbd 7688 5e3c a370 f53d 9a8d 0e3c
000001b0: 83c2 b4bd 11f0 c83d 21e4 a0bd 9c37 e3bc
000001c0: 46cb abbd 33e9 b0bc 426b b93c 53a0 7cbd
000001d0: 9854 483d 9d60 543d da09 0fbd 637e 96ba
000001e0: 21f3 dfbd 1026 33bd ff5e f83c 8245 a43d
000001f0: d345 653d 85bd 0abd bbd7 51bd 876f cdbd
00000200: d378 38bc 5031 8b3d 7c13 e5bd ec16 9a3c
00000210: 0757 a83d 30d7 c9bc e99c 5339 3f5e 933d
00000220: d424 b63d 58ee d9bd d654 21bd 54fc 713d
00000230: 2016 4cbd 0964 a4bd 0e8f 8c3d 58ce fb3c
00000240: 9f05 abbd 5af5 f73c 1d14 ba3d dd7d bcbd
00000250: 262f d63d cf36 023e c856 483d 5d17 e8bd
00000260: d36d 4abd 744e a53d 54b9 d0bd b83b 3ebd
00000270: 50c5 d0bd 2b10 eb3d 79ca 3e3c 60ee 6fbc
00000280: 5a69 81bd 4686 80bd 6797 47bd 3cfa f7bd
00000290: 88ae a9bd dec7 4fbc c957 9b3d 28b0 8abd
000002a0: 21fe b0bd c491 19bc 0586 263d e19c 09bc
000002b0: 340c 443c d120 cdbc 3a58 3bbd 590e 96bd
000002c0: f9d6 bd3d 199e 923d 475e 303d d121 82bd
000002d0: 4c29 453d fde6 a3bd 9417 fc3c 4bd8 b63d
000002e0: f065 96bd 993b 803d 3d9a edbd affe dfbc
000002f0: 6589 283d 5b3c 523b 93b7 da3d a46d 31ba
00000300: a94a 34bd 104a 443c 1779 e13d 67b4 f4bd
00000310: 75ac 8b3d 81aa 703c 7631 11bd 6d3e c03d
00000320: e653 d03d 1e3a 033d 94c1 3a3c 7791 9abd
00000330: c201 f23d 9cc2 88bc 5409 233c 8170 fabd
00000340: 50d8 b93d 8d8f 27bc b241 553d 32b8 3cbd
00000350: cfb7 723d 55d2 243d a498 ddbd 1f62 2cbc
00000360: 0185 ae3d 5c82 65bd 36f9 6a3d 9243 febd
00000370: 04d0 c83d d8ad 4a3d bf54 c53d 045c 80bd
00000380: b0fe f5bc 3b6a acbc 0c2c d73d 1526 c23d
00000390: 9625 e7bd 3ed7 e73d ac57 8cbd 6491 bebd
000003a0: f2fb 693d 82b9 edbd ad0b e3bc 54e8 ce3c
000003b0: 9389 8e3d f518 79bd 9146 afbc 8249 e03d
000003c0: 988b 47bb ecf9 bb3d 1d4a 11bc 2027 87bd
000003d0: 1793 a5bd 2db5 bd3d 1a33 c73d 1521 28bd
000003e0: 4fe8 6e3d 4416 5a3d 00f4 843d a3da e2bd
000003f0: c3bb e73c df4c b33d 6f93 80bc ccca 11bc
0.12512337 -0.09573849 -0.0105067305 -0.004146282 -0.06879988 0.06500005 -0.0022405516 -0.08610016
-0.11433752 0.120412245 0.026739925 -0.10525793 0.070574604 -0.103102095 0.09576168 -0.11121012
0.026058545 -0.08868868 0.0076043694 0.07991043 -0.09973758 0.064118974 -0.072561026 -0.0028894495
-0.029845938 -0.053978894 -0.10105297 -0.089135915 0.05437557 -0.043776467 0.11030037 0.012928947
0.11262302 -0.007423976 0.11476263 0.054214943 -0.026556188 0.0037069912 0.0007234223 -0.1072914
0.084470965 -0.08531229 -0.060019583 -0.012330183 0.107744895 -0.11690953 0.12448351 0.08734106
0.05734047 0.042457145 -0.02579831 -0.03134154 0.006576194 0.04356052 0.07071903 0.031111259
-0.05337842 -0.08770606 0.054486517 -0.044334088 0.1085564 -0.064246714 0.115000874 0.06283654
0.03171839 -0.009971855 -0.045722377 -0.005699701 0.11365336 -0.03777944 0.08353883 0.022837486
-0.018240375 0.01939354 0.09897732 -0.1142843 0.1122892 0.036450565 0.10438003 -0.106033735
0.1011834 -0.09005967 0.1062794 -0.10091196 0.007372029 -0.04010812 -0.010822326 0.0508258
0.0752355 0.108051896 0.05640388 0.1124897 0.079521835 -0.020505207 -0.023530982 0.07369698
-0.075205855 0.045079816 0.10484137 -0.050758656 -0.012866262 0.087177865 0.03581855 -0.10124387
-0.08383269 0.0135823395 0.119843744 0.008700753 -0.08826163 0.09811414 -0.07856012 -0.027736478
-0.08388381 -0.021595573 0.022634152 -0.061676335 0.0489088 0.05184995 -0.034921505 -0.0011481758
-0.10935045 -0.04373747 0.030318735 0.0802107 0.055974793 -0.033872146 -0.051231127 -0.10031038
-0.0112592755 0.06796515 -0.11185357 0.018809758 0.08219724 -0.024638742 0.00020180982 0.071957104
0.08893743 -0.106411636 -0.039387546 0.05907853 -0.049825788 -0.08026893 0.06863223 0.03073804
-0.083506815 0.03026836 0.090858676 -0.09203694 0.104582116 0.1271622 0.048910886 -0.11332581
-0.049421143 0.08071604 -0.101915985 -0.04644367 -0.101938844 0.11477693 0.011644953 -0.014644235
-0.06318922 -0.062756106 -0.048728373 -0.12108275 -0.08285242 -0.012681929 0.07585103 -0.067718804
-0.08642221 -0.009373132 0.040655155 -0.008399219 0.0119658 -0.025040062 -0.045738436 -0.07326955
0.092695184 0.07159061 0.04305866 -0.06354106 0.048135087 -0.08003042 0.030772962 0.08927973
-0.07343662 0.06261367 -0.11601684 -0.027343122 0.041146655 0.0032079432 0.10679545 -0.0006768352
-0.044016514 0.0119805485 0.11009424 -0.119484715 0.06820003 0.014689089 -0.03544756 0.09386907
0.10172252 0.032037847 0.011398692 -0.075472765 0.118167415 -0.01669436 0.0099509545 -0.1222849
0.090744615 -0.010227096 0.052064605 -0.0460741 0.059257325 0.04023965 -0.108201295 -0.010521441
0.08521462 -0.056032524 0.057366572 -0.12415232 0.09805301 0.049482197 0.09635305 -0.062675506
-0.030028671 -0.021046748 0.10506448 0.0947992 -0.11286466 0.11320351 -0.068526596 -0.09305075
0.05712504 -0.116076484 -0.027715528 0.025257267 0.06959834 -0.060814817 -0.021395953 0.109515205
-0.0030448195 0.09178528 -0.008867768 -0.065992594 -0.08084696 0.09263072 0.09726544 -0.041047174
0.058327015 0.05324389 0.06491852 -0.11076858 0.028287774 0.087548964 -0.015695302 -0.008898448

fc6.bias f4 [64]
00000000: cc0f abbb 49d5 24bd 4ed2 82bd 07ef 8ebd
00000010: b45d b23d ed51 a03d 6abf aebd 9edf a4bd
00000020: e56f bd3c d076 be3d 1bc5 adbd 626c 63bd
00000030: d8f4 cd3d 91a6 af3d 05d4 72bc 7bb9 57bd
00000040: 8e2b debc f7a1 00bd 6081 a73d 15b8 91bd
00000050: f00d 7b3b b6ee ac3c 3f40 933d aa04 a93c
00000060: 1529 afbd 796f 483d 467c dfbd 8793 d0bd
00000070: 5a9a c13d 1656 96bd ce78 b13d e7b6 f5bb
00000080: 13a9 f8bd f79e e6bd f383 ea3d f866 9fbd
00000090: 26f5 833c 607a 82bc de18 d83d 9d8b fa3d
000000a0: 3a5e f83d e2af 7cbb 5b01 25bd fbc7 d2bd
000000b0: 4299 953d 9a9c 893d 06fb fb3d e59d 73bd
000000c0: e30d ae3d a2d6 92bc 9451 6cbd 8f95 4bbc
000000d0: 96c5 9a3c edd5 063d 2aab 553d 30ad adbc
000000e0: af35 e4bb 6f7a f3bd 6bbd e03d dd33 b13d
000000f0: 26bf cfbc 56df d63d acd5 9e3d a17b a93d
-0.005220389 -0.040242467 -0.06387769 -0.069791846 0.08709279 0.07828126 -0.08532603 -0.08050464
0.023124645 0.093000054 -0.084848605 -0.055523284 0.10056466 0.08576692 -0.014821057 -0.052667122
-0.027120378 -0.03140446 0.08178973 -0.07115189 0.0038307868 0.02110992 0.07189988 0.020632107
-0.08552758 0.048934434 -0.10912375 -0.101843886 0.09453268 -0.07340638 0.0866562 -0.0074986103
-0.12141623 -0.11260789 0.114509486 -0.077833116 0.016108107 -0.015927494 0.10551618 0.1223366
0.12127347 -0.0038556983 -0.040284496 -0.102920495 0.07304622 0.067193225 0.12303738 -0.05947675
0.084987424 -0.01792461 -0.057694986 -0.012425794 0.018893044 0.03291886 0.052165188 -0.021200746
-0.0069644074 -0.11888587 0.109736286 0.0865247 -0.025359701 0.10491817 0.077555984 0.082755335

fc7.weight f4 [1, 64]
00000000: 7aeb 38bd 2b26 483d 633d 01be a3a6 de3d
00000010: daf8 dd3d c743 593d 6ad8 c0bb a912 1fbe
00000020: 9747 c6bc 6f5a e43d 29f4 4f3d 2e81 03be
00000030: d1b3 163e bf56 a9bd b320 9d3b a0bd 663d
00000040: 25c8 9abd 2382 febd 9268 0dbe b67c 753b
00000050: c187 eebd d119 3e3e b631 143d 74b8 793d
00000060: f83e 193e 84b4 093e d121 073d 6e06 013e
00000070: 83ea 853d 2d0f f8ba 606b 81bc f5e5 75bd
00000080: 8d4c ab3d a30f 08be f230 c33d ea6d 113e
00000090: d8b1 29bc 2848 9d3d c0f3 1fbe 203c bf3c
000000a0: 418b 083e 735f 2dbd 076d 29be 96df f6bd
000000b0: 9ad3 0c3e 0b2e c0bd 0c52 ab3d 51b6 fabd
000000c0: 3dea 1d3d 2fa4 563e 53ac 7e3d 3089 e13c
000000d0: f5b4 99bd 5254 3d3d 2271 513d c3cf 16be
000000e0: c8e2 fb3d 2314 083d 7145 c23d 80b4 b83d
000000f0: a6b7 a5bd 0445 e43d e749 163c f13a fabd
-0.045146443 0.048864525 -0.12621073 0.10871627 0.1083848 0.053043153 -0.0058851736 -0.15534462
-0.024204059 0.11150061 0.05076996 -0.12842247 0.14717032 -0.08268499 0.004795158 0.056333184
-0.07557706 -0.12427165 -0.13809422 0.0037458367 -0.11646987 0.18564536 0.03618022 0.060966924
0.14965427 0.13447767 0.032991234 0.12600109 0.0653887 -0.0018925421 -0.01579827 -0.060033757
0.0836421 -0.13287215 0.0953082 0.14202085 -0.010357343 0.07679778 -0.15620327 0.0233441
0.13334371 -0.042327356 -0.16545497 -0.120543644 0.13752595 -0.09383782 0.083652586 -0.12241805
0.038553465 0.20961069 0.06217606 0.027531236 -0.07505218 0.046222992 0.051133282 -0.14727692
0.122991145 0.03322233 0.09485901 0.09018803 -0.08091669 0.11145976 0.009172893 -0.122182734

bn1.weight f4 [64]
00000000: 2dd6 7e3f 9e08 803f b32f 803f 7ca8 7f3f
00000010: 0000 803f e796 803f 0000 803f 0000 803f
00000020: 0a38 813f b471 7f3f 2fe1 7f3f 7f7a 7f3f
00000030: 8a55 803f 04dc 7f3f c138 803f acbf 7f3f
00000040: 0000 803f b502 803f 0000 803f 41af 7f3f
00000050: c9da 7f3f b32a 803f 7cad 7f3f a87c 803f
00000060: 09f9 7f3f af5e 803f 3658 7f3f 82f8 7f3f
00000070: f22b 803f 0000 803f 107d 803f 27e1 7f3f
00000080: 0b08 803f 5751 803f d25e 803f 0f52 803f
00000090: b110 803f 0000 803f 08d0 8a3f 1814 803f
000000a0: 0000 803f 7934 803f ca9c 803f 3eb4 7f3f
000000b0: 4218 813f e152 803f 0000 803f 0000 803f
000000c0: 3982 7f3f ae27 803f 0c60 803f 0d4e 803f
000000d0: d1fb 7f3f 5e13 803f 0000 803f c61f 803f
000000e0: 17b8 7f3f a553 803f fbb0 803f 0000 803f
000000f0: 3b2a 803f 0000 803f 2da1 803f d924 803f
0.99545556 1.000263 1.0014557 0.9986646 1.0 1.0046052 1.0 1.0
1.0095227 0.9978287 0.9995298 0.9979629 1.0026104 0.9994509 1.001732 0.99901843
1.0 1.0000826 1.0 0.9987679 0.99943215 1.0013031 0.9987409 1.0038042
0.9998937 1.0028895 0.99743974 0.9998857 1.0013411 1.0 1.0038166 0.9995293
1.0002455 1.0024823 1.0028937 1.0025042 1.0005094 1.0 1.0844736 1.0006132
1.0 1.0016013 1.0047848 0.998844 1.0085528 1.0025293 1.0 1.0
0.9980808 1.0012109 1.0029311 1.0023819 0.99993616 1.000591 1.0 1.0009696
0.99890274 1.0025526 1.005401 1.0 1.0012888 1.0 1.0049187 1.0011245
