exp/LeNet/module_6.pth (torch, 489607 bytes, 10 tensors)

weight f4 [16, 3, 5, 5]
000000 99 0e 02 3d fb 86 b4 3d c6 e7 33 bd c0 b6 ea bd
       0.031752203 0.08814808 -0.04392221 -0.11460638
000010 82 de e2 bd 5b 28 b3 3d 60 d8 03 3e fd 90 13 bd
       -0.11077596 0.087479316 0.1287551 -0.036026943
000020 5e e4 1d 3c 1c 63 c7 3d ae f7 89 bd da 74 b9 bd
       0.0096369665 0.097357005 -0.06736694 -0.09055491
000030 29 79 8e 3d 36 25 3b bd a5 58 97 3d a1 f4 3d 3d
       0.06956703 -0.045689784 0.073899545 0.046375874
000040 77 79 06 be 80 fb 18 be 4c d2 21 be 27 13 99 3d
       -0.13132273 -0.1493969 -0.15802878 0.07474356
000050 cc bb 9e bd fe 3b b7 bd e2 56 54 bd db 22 8b bd
       -0.07750663 -0.089469895 -0.05184067 -0.067937575
000060 6f 32 e4 bd 54 cd 95 3d a1 17 b2 bc ac 13 4c bd
       -0.11142432 0.07314554 -0.021739783 -0.049823448
000070 83 8a be 3c 83 46 33 3c 6a 61 93 3d 00 fc ec 3d
       0.023259407 0.010942104 0.07196315 0.11571503
000080 e3 92 8b 3d cc cb 33 bd 4b da dc bd 56 21 e1 bd
       0.06815126 -0.043895528 -0.107838236 -0.109926865
000090 df 99 99 3c 1c bc aa 3b 65 7d 06 bd 2f 17 fd bd
       0.01875013 0.0052104127 -0.03283443 -0.123579375
0000a0 85 45 19 be ac 45 03 bd 5a fa 43 bd d9 bf e1 bd
       -0.14967926 -0.032048866 -0.047846176 -0.1102292
0000b0 d4 c9 3f be f3 a1 7c 3b ac 4c 96 bd e0 eb 70 3c
       -0.18729335 0.0038548678 -0.07338843 0.0147046745
0000c0 00 af 57 b8 05 5d a1 bd d4 a9 7e 3c 23 c3 00 3e
       -5.1422976e-05 -0.0787907 0.01554342 0.12574439
0000d0 98 0a dc 3d a6 1d 40 3e d0 3b 18 3e 78 fb 31 3e
       0.10744208 0.1876131 0.14866567 0.17381084
0000e0 6b 67 eb 3b 28 87 2e 3e a5 39 48 3e ce fc dc 3d
       0.0071839592 0.17043746 0.1955324 0.10790406
0000f0 5b e0 c1 3d 97 b2 0f 3d 24 d4 9f 3d bf ba a7 3d
       0.094666205 0.035082426 0.078041345 0.08189916
000100 4c 2c 19 3d b6 64 6b 3d 52 1d 52 bd dd f4 0c bd
       0.03739576 0.057469092 -0.051297493 -0.034413207
000110 33 99 e0 3d c9 69 83 bd 4b fd 1f 3e c8 57 52 3e
       0.109667204 -0.06416661 0.15623967 0.20541298
000120 b7 2d b9 3d 74 08 1f 3e f6 04 24 3e c2 17 00 3e
       0.090419225 0.15530568 0.16017517 0.12509063
000130 44 10 19 3e e6 e1 0e 3d 85 22 39 3e ec cf c9 3d
       0.14947611 0.034883402 0.18079574 0.09854111
000140 b1 c7 b5 3d df 69 29 3e 93 7f 64 3d 0e 25 f0 3d
       0.08875979 0.16544293 0.055785727 0.117258176
000150 fe 37 41 3e 6b a4 04 3e a6 b4 19 3e 10 af ec 3d
       0.18869016 0.12953345 0.15010318 0.11556828
000160 7d bb 8e bd 25 b0 dd bb f2 67 fd bd af 19 80 bd
       -0.06969354 -0.006765383 -0.123733416 -0.06254899
000170 53 d1 53 be d7 7a 5b be b8 e7 00 bd ba 71 f1 bd
       -0.2068532 -0.21433578 -0.031470984 -0.1178927
000180 d6 0f 2e be 13 60 7f be 8e e2 b6 bd 14 00 76 be
       -0.16998228 -0.24938993 -0.089299306 -0.24023467
000190 be dd 64 bd 17 48 6b bc e2 11 e3 3d 64 72 a8 bd
       -0.055875532 -0.014360449 0.11087395 -0.08224943
0001a0 b3 52 3e bc 8c 5a 1d 3e 4f a9 53 3d 44 8e ac 3b
       -0.011616397 0.15366572 0.051675137 0.005265983
0001b0 ec b0 04 3e a9 85 07 3d f6 8b 9a 3c 0e 09 3d 3d
       0.12958115 0.033086453 0.018865567 0.046151213
0001c0 e6 06 4a 3d a7 db 82 3d a4 cd b8 bd b2 31 84 be
       0.049322985 0.063895516 -0.09023598 -0.25819165
0001d0 e5 b6 8c be 06 5e 9e be 3f a6 58 be 0b b0 1d be
       -0.27483287 -0.3093111 -0.21157168 -0.15399186
0001e0 1c d9 74 be da bc 82 be 9c 00 16 be 07 d4 a3 be
       -0.23910946 -0.25534707 -0.1464867 -0.31997702
0001f0 0b ed 76 be 6c f0 18 3a a1 49 25 3e 01 43 28 3e
       -0.24113862 0.00058341655 0.16141368 0.1643181
000200 0e 6c 2f 3e e4 f5 04 3e f7 ff 0c 3e 16 95 3f 3e
       0.17131063 0.12984425 0.13769518 0.18709216
000210 7b 15 59 3e 6e 07 81 3e a4 fd 56 3e f0 3a 11 3e
       0.211996 0.2520098 0.20995194 0.14182639
000220 1f 39 43 3e 64 23 50 3e 31 6a 4e 3e c0 7e 86 3d
       0.19064759 0.20326 0.20157696 0.065671444
000230 33 d8 17 bd 35 ce 05 be a9 b3 aa bc 85 e7 44 3d
       -0.037071418 -0.13066943 -0.020837622 0.048072357
000240 29 ec 1a bd 53 f9 44 3c a5 57 9b bd e9 48 e1 bd
       -0.037822876 0.012022334 -0.07585076 -0.11000235
000250 47 77 a8 bc 9e f5 77 3d 56 ef ab 3d a3 df f6 bd
       -0.020564688 0.060536973 0.08395259 -0.12054374
000260 95 a7 94 bd c6 bd 99 3c 4e 60 b4 bd 3d 07 07 bc
       -0.07258526 0.018767249 -0.08807431 -0.008241472
000270 01 b5 d2 bd eb f8 8b bd da 4f 99 3d 3b 0e af bd
       -0.1028843 -0.06834587 0.074859336 -0.08547636
000280 68 f6 07 3d 66 88 71 3c 02 4d 97 3d 41 9f 00 3e
       0.033193976 0.014741993 0.07387735 0.1256075
000290 88 71 f7 3c 19 d4 92 3c c9 0b b0 3d 25 be a3 bc
       0.030205503 0.017923402 0.08595998 -0.019988129
0002a0 13 44 b2 3d 40 32 9d bd 6e 36 fa 3b e0 6f 51 3b
       0.087043904 -0.076756 0.007635883 0.0031957552
0002b0 8c d2 4a bd 02 ad d7 bd df c2 a2 3d 57 9c 98 bd
       -0.0495172 -0.105310455 0.07947325 -0.074516945
0002c0 5f 3b 2c bd 4b 0d 83 bb 19 c2 85 bd b0 eb 16 bc
       -0.04204881 -0.0039993874 -0.06531162 -0.009211466
0002d0 df 87 95 bc 9b 05 32 3d 61 0b 58 3d 7e 9e 48 bd
       -0.018253265 0.043462377 0.052745227 -0.048979275
0002e0 49 0f 94 3d 19 76 0d 3b 25 e6 c6 3d bd 8d 80 bd
       0.07229478 0.0021585284 0.09711865 -0.062770344
0002f0 d6 60 b4 3d f7 67 c8 bd 68 ca 05 bd 63 a2 41 bd
       0.088075325 -0.09785455 -0.032663733 -0.047274005
000300 79 76 ee bd 11 d1 46 bd b1 26 15 bd 6e 71 02 be
       -0.116436906 -0.048539225 -0.036413852 -0.12738582
000310 71 c5 9c bd b6 95 08 bd 2b 75 9e bc 38 fc 1d be
       -0.076548465 -0.0333459 -0.01934298 -0.15428245
000320 d4 c9 e8 3c 87 cf 00 3d 46 61 ef 3d f8 42 05 3e
       0.028416552 0.031447913 0.11688475 0.13013828
000330 3c 70 ff 3c 8e b3 1b 3d 39 3e b4 3d d7 c1 25 3d
       0.031181447 0.038013034 0.088009305 0.040468063
000340 2e 5a a2 bd 75 4a d1 3d ef ea 17 3c a9 13 84 3d
       -0.07927357 0.1021928 0.009272321 0.064490624
000350 ed c5 22 3e 68 3f 99 3c 78 47 ec 3d d4 e2 0f 3d
       0.15895815 0.018706992 0.11537069 0.03512843
000360 b1 70 73 bc 78 cf 8b bd 37 6d d2 3d 2e b6 fa 3c
       -0.014858411 -0.06826681 0.10274737 0.030604448
000370 1b b0 a2 3c f9 ba 34 bd af f0 00 bc 90 ad 76 3d
       0.019859364 -0.044123624 -0.007869883 0.060224116
000380 9e 85 86 bd f3 8d 77 3d 87 25 94 bd 3e 9c 8f 3d
       -0.06568454 0.060438108 -0.0723372 0.07012223
000390 57 8e 75 3d a4 e2 bb 3d bc 17 b7 bc 0d 3d 33 3d
       0.0599502 0.09174088 -0.022350185 0.043759394
0003a0 b4 dd 11 3d 94 9d 68 bc be 93 3b 3d 83 bd 01 3e
       0.035611823 -0.014197726 0.045795195 0.12669949
0003b0 bd ce e6 3d 64 89 e3 3d 7b ce c4 bd 01 2c 92 3c
       0.11269901 0.111101896 -0.096096955 0.017843248
0003c0 70 a9 09 3e 07 ba c8 bd 8f bd 0f 3e 7e e9 b7 3c
       0.13443542 -0.09801107 0.14037155 0.022450205
0003d0 df 20 ea bd dd 90 3f bb 7d ab 15 3c bf 63 a5 3d
       -0.11432051 -0.0029230632 0.009135124 0.08075666
0003e0 ee 92 16 bd 58 ec 9d bd 26 19 a2 3b cb 5a eb 3c
       -0.036761217 -0.077110946 0.0049468456 0.028729817
0003f0 bf 3a 11 bc 2e 3c 65 3c 90 5e 78 3c c0 36 b7 bc
       -0.008864104 0.013991399 0.015159264 -0.022364974

bias f4 [16]
000000 12 9a ba be 3c ab aa be ed 9f a1 bd 9e b3 6d bd
       -0.3644567 -0.33333766 -0.078918315 -0.058032624
000010 ce d2 06 3e 8c 20 e9 3e 2f ba 0e be 1f b2 3e 3d
       0.13166353 0.45532644 -0.13938211 0.04655659
000020 92 62 50 bd f4 b4 03 be 67 89 ca 3d de 23 5d 3c
       -0.050875254 -0.12861997 0.09889489 0.013497321
000030 99 4e 88 3c b4 25 0c 3e f1 29 20 be 17 0d e0 bb
       0.01663904 0.13686258 -0.15641 -0.006837498

weight f4 [32, 16, 5, 5]
000000 7e 5e ae 3c 33 0c c4 bc 43 55 c4 bc 7f 4b 6b 3b
       0.021285292 -0.023931598 -0.023966437 0.0035903153
000010 10 8a 5b 3d ea fe 86 3c 3a f1 a6 3c 6a 4e 23 bd
       0.053598464 0.016478974 0.020378698 -0.039869703
000020 64 63 20 3d 62 f5 f1 3c 57 5a 1a 3d 0b 68 cb bc
       0.039157286 0.029535953 0.03768381 -0.024829885
000030 f2 6c 93 bc b1 a8 6a bc 85 c7 c3 bc 35 92 ad 3c
       -0.017996285 -0.014322446 -0.02389885 0.021187881
000040 b5 16 80 3c d1 bf 43 3d 8f 32 6b 3c 35 5d 18 3d
       0.015635828 0.047790352 0.014355316 0.037198264
000050 2f cb 15 3d f8 49 fa bc b3 06 c2 3c c3 4e c9 3c
       0.036570724 -0.03055285 0.023684835 0.02457369
000060 75 f1 08 3d 56 64 2f 3c c1 5d 93 bc 5d 3b ca bc
       0.033433396 0.010705074 -0.017989041 -0.02468651
000070 d5 32 4e 3d 38 4e bc 3c bc b5 48 bc f9 6d 10 bd
       0.050341446 0.022986516 -0.01225036 -0.035261128
000080 cd 17 87 3d 0b aa b8 3c c9 bb ae 3d 9c df f5 3c
       0.065963365 0.02254202 0.08531911 0.030013852
000090 34 7a 0d bd f4 71 3b 3d d1 6d 5a 3d bb 01 1e 3d
       -0.03454037 0.04576297 0.053327385 0.03857587
0000a0 5a 3f 1f 3d 7c 66 57 3c bb c5 be 3c 44 ae 3e b9
       0.038878776 0.013146993 0.023287645 -0.00018184731
0000b0 7c db 86 bb 19 11 32 3d 42 2b 43 3d c3 92 07 bd
       -0.00411552 0.043473337 0.047648676 -0.033098947
0000c0 15 97 ff bc bc d7 78 3d 35 53 be 3c bc 47 94 bc
       -0.031199971 0.060752615 0.023233036 -0.018100612
0000d0 ce 71 89 bb bf 45 81 bc 77 3d 75 bc 7d 61 73 3c
       -0.004194475 -0.015780328 -0.014968268 0.014854786
0000e0 a3 0d 2a bd 4a 29 c1 3c 1e 87 4d 3c 45 63 36 3d
       -0.04151691 0.023579258 0.0125444215 0.044528265
0000f0 79 05 1e bd 56 c9 60 bc 0e 34 c8 bc 0b 9a 11 ba
       -0.038579438 -0.013719877 -0.024438884 -0.0005554265
000100 4d 65 97 bc 60 cb 52 3d 55 3c 7c bc 22 3d 07 3d
       -0.018480921 0.051463485 -0.015395244 0.033017285
000110 3f b0 e1 bc 05 8b 3d bb b0 fb 26 3d d6 64 1d bd
       -0.027549861 -0.0028921973 0.04076737 -0.038426243
000120 d3 fc 8f ba 20 a5 db bc 38 11 4c 3d 27 7c 78 bc
       -0.0010985382 -0.026812136 0.04982111 -0.015166319
000130 fd c5 37 bd ef d4 d0 3c 7a c4 0a 3d 1b f1 8e bc
       -0.04486655 0.02549216 0.03387878 -0.017448952
000140 7a c3 94 3c ba bb 2a bd eb 09 d3 3b 6e 44 4e 3d
       0.018159617 -0.041682936 0.0064403913 0.05035823
000150 63 09 37 3d b1 1f 2a bd ec 57 1a 3d f7 9a 1b 3d
       0.044686686 -0.04153413 0.037681505 0.037989583
000160 cf e6 6f 3c 23 a5 aa bc 66 bf 0b 3d 09 fc 4f 3c
       0.014642431 -0.020830696 0.03411808 0.012694367
000170 9c 38 4d 3d eb 34 64 bd 8d 18 6f bd ea a8 48 3d
       0.050102815 -0.05571453 -0.058373023 0.048989214
000180 c1 35 0d bc f0 af 07 bc bb 2f 33 bb 3b f0 14 bd
       -0.008618773 -0.008281693 -0.0027341682 -0.036361914
000190 f3 be 68 3d 8e a4 45 3c 6d 96 0a bd 40 ec c0 3a
       0.05682273 0.012063159 -0.033834863 0.0014718845
0001a0 4c 96 47 3a 63 4b 8d 3c fa ba 03 3d 21 cd 3b bd
       0.00076136435 0.017247861 0.032160737 -0.045849923
0001b0 89 c2 23 3d cc a2 37 3c a0 d5 56 3d cc d2 3a 3c
       0.039980445 0.011208247 0.052449822 0.011402797
0001c0 47 ae ea bc e9 ee 17 3d 6c 90 51 3d 32 b3 72 3d
       -0.028647555 0.037093077 0.051163122 0.059252925
0001d0 c3 89 04 bd 87 bb 5d 3c 94 15 92 3c 4e 14 99 bc
       -0.032357942 0.0135334795 0.017832555 -0.01868644
0001e0 bd bd 4a 3d 0f e5 e7 3a af b7 e0 3c 6d b1 46 3c
       0.049497355 0.0017692166 0.027431337 0.012127263
0001f0 bc 14 22 3c 7f a7 9c 3b 52 7d 17 3d f0 6c 4f bd
       0.009892639 0.0047807093 0.03698475 -0.050641
000200 c1 a4 dd 3b 52 16 cf 3c 9d 7d 17 bd 56 b4 60 bd
       0.006764025 0.025279198 -0.03698503 -0.05485948
000210 6b 2d 1f bc 5c 61 35 bc 2c 72 20 bd ea 93 6f bc
       -0.009715418 -0.011070576 -0.039171383 -0.014622668
000220 d5 9e 91 bd 7a 0b 64 bd e5 90 1d bd e8 ba 95 3c
       -0.07110373 -0.055675007 -0.03846826 0.0182776
000230 84 52 74 bd 48 16 76 bd 96 91 be bc bc b0 c6 b9
       -0.059649006 -0.060079843 -0.02326278 -0.0003789718
000240 b2 43 65 3d 60 ba 64 bd 5f 62 60 bd 1a e3 eb bc
       0.055972762 -0.055841804 -0.054781314 -0.028794814
000250 ab 59 d9 3c 01 68 1b 3d ab b1 04 bd c2 95 e7 bc
       0.026532015 0.037940983 -0.032396 -0.028269652
000260 e6 c2 e0 bc 70 6b 2b 3b 6c e9 19 bd 87 e7 67 3d
       -0.027436685 0.0026156567 -0.037576124 0.056617286
000270 e8 e9 db bc e8 66 eb bb 19 4c 0c bd 4c 49 3c 3d
       -0.026844934 -0.0071838982 -0.03425226 0.04596834
000280 33 c7 aa 3c 5d 7e 01 3b 16 55 18 3d c5 7b 1a 3b
       0.020846939 0.0019759156 0.03719052 0.0023572308
000290 64 c5 02 bd 50 7e 1d 3d 04 42 f7 bb 18 b9 36 bd
       -0.031926528 0.03845054 -0.0075457115 -0.044610113
0002a0 e0 b1 42 3c 42 93 0b 3d 47 98 83 3d 95 18 50 3d
       0.011883229 0.034075983 0.06425529 0.050804693
0002b0 33 bc fb bc fa bd aa bc 94 7f d4 bc 96 42 ff bc
       -0.030729389 -0.020842541 -0.02593974 -0.03115968
0002c0 b4 50 2c 3d 6d 2a 08 bb 68 77 31 3d 45 77 79 bc
       0.042069152 -0.002077724 0.043326765 -0.01522619
0002d0 fd a4 33 bd f0 98 4c 3c 3a de 73 3b 00 c4 11 3b
       -0.043858517 0.012487635 0.0037211315 0.002224207
0002e0 99 f6 9f 3c 07 f1 3f bd ad 3e b6 bc 57 4c 65 3d
       0.019526767 -0.04686072 -0.022246683 0.055981006
0002f0 3d a8 95 bb 4e 8d c6 3c 22 57 cd 3b 7d b6 52 3d
       -0.0045671747 0.024237301 0.0062664906 0.051443566
000300 d0 00 79 3d 41 00 c6 bb 5e 8a fa 3c 2f ca cc 3c
       0.06079179 -0.0060425107 0.030583557 0.024998752
000310 cf b4 a1 bc 65 fb 7b 3d 9d e4 58 3b d8 41 08 bd
       -0.019739537 0.061519045 0.0033095249 -0.03326592
000320 a5 af de 3c a3 75 6f 3c 5e f5 2a 39 e5 97 4c bd
       0.027183363 0.014615449 0.0001630387 -0.049949545
000330 50 48 0c bd 5e 4c bb b9 ac 79 60 3d b0 30 a8 bc
       -0.03424865 -0.00035724317 0.054803535 -0.020531029
000340 ec d0 b4 3c 83 ee b3 3c fc f9 2e 3d 29 cd 0f bd
       0.022072278 0.021964317 0.042718872 -0.035107765
000350 89 33 3a 3d 9b 98 2e bd 5c 63 1e bd 81 46 f3 bc
       0.045459304 -0.042626005 -0.038668975 -0.029696705
000360 2f ca 53 3d d9 52 c6 3c 0b ce b0 3c 22 c6 84 bc
       0.05170649 0.024209427 0.021582624 -0.016207758
000370 37 31 5b 3d ca 7a 0f bd 7d 10 81 3d 31 75 0e 3d
       0.05351373 -0.03502921 0.06301973 0.03477973
000380 9b f7 2c bd 96 bc 36 3d 15 6f 2e bc 7e 4c 03 3d
       -0.042228322 0.044613443 -0.010646601 0.03205537
000390 4f 88 0f bd 03 8a d9 3c 85 05 88 3d af 9c f7 bc
       -0.035042103 0.026555067 0.06641678 -0.03022608
0003a0 11 12 22 bd fc 0d 03 bd 3f 64 ef 3b ac 51 1f 3d
       -0.03956801 -0.03199576 0.0073056514 0.038896248
0003b0 c4 a7 22 3d 04 1d b1 3c 39 e2 35 bd 41 e3 5a 3a
       0.039710775 0.021620281 -0.044405196 0.00083499035
0003c0 b3 be 0b 3c 89 d4 cd 3b 2d 5e 82 3c a3 39 4f bd
       0.008529353 0.0062814397 0.015914047 -0.050592076
0003d0 18 55 84 bc 94 f6 51 3d ed 3e e8 3c ab b6 2b bd
       -0.016153857 0.051260546 0.028350318 -0.041922253
0003e0 90 4c 2d ba 8e d4 d3 bc cb 28 c0 3c 70 65 23 bd
       -0.0006610835 -0.02585819 0.023456952 -0.03989166
0003f0 a2 d1 9b 3c 76 0a 0a bd 53 90 1f 3d c6 5b 0e bd
       0.01902086 -0.033701383 0.038955998 -0.03475549

bias f4 [32]
000000 6b 24 ee bc 9f d8 f1 bc 73 a9 9e bc 26 1c 0d bd
       -0.0290701 -0.029522238 -0.019367909 -0.034450673
000010 41 02 da 3a 13 6a ff bc 3d 9e 8a bd d7 9d 29 bc
       0.0016632752 -0.03117851 -0.06768463 -0.010352573
000020 4a 7a b6 3b 38 c6 7a bd 18 b4 ac b8 7a f6 37 3d
       0.005568777 -0.061224192 -8.235144e-05 0.044912793
000030 d3 c3 35 bd f4 f1 ed 3c 62 fb 92 bd be 62 74 3c
       -0.044376206 0.029046036 -0.07176854 0.01491612
000040 04 7c 14 bd cf ee 35 3d 8f bd ec bc 51 08 c9 bc
       -0.036251083 0.0444172 -0.028898982 -0.024540098
000050 fc 47 8f 3d 28 97 0a 3c d8 78 fa 3b f7 c5 93 ba
       0.06996152 0.00845889 0.0076438 -0.0011274208
000060 c0 51 80 bd 67 64 b9 3c 0d de e3 bc 7a 40 28 3c
       -0.062655926 0.022630883 -0.027815843 0.010269279
000070 c9 ab 68 bd 31 14 f3 bc 63 f9 2c bd 40 81 de ba
       -0.056804452 -0.029672714 -0.04223002 -0.0016975775

weight f4 [120, 800]
000000 15 e0 14 3d a1 3e f3 3c 1e 69 9b bc 73 e7 c2 3c
       0.036346514 0.02969295 -0.018971022 0.023792004
000010 b1 19 09 3d 01 94 dc 3c 45 b2 00 3d db 4a 8d 3c
       0.033471767 0.026926043 0.03142001 0.017247608
000020 20 8a ef 3c 87 76 a7 bc 8c b0 f7 bc 6f d2 3e 3c
       0.029240668 -0.02044226 -0.030235551 0.011646851
000030 9c 19 a1 bb 2c 49 a4 bb 18 7b 9c 3a ec 8c 89 3c
       -0.004916383 -0.0050136056 0.001193854 0.01679083
000040 c2 eb e4 ba 38 dc 06 3d be c8 75 3c dd a0 c2 bc
       -0.0017465281 0.03292486 0.015001474 -0.023758346
000050 a4 41 8a bc f6 ab bf bc c6 e5 4f 3c 23 bb 04 bd
       -0.016877003 -0.023397427 0.01268906 -0.03240503
000060 b0 10 74 3b ad 97 c8 3c e9 cc 14 3d 4e 02 ca bb
       0.0037241392 0.024486387 0.03632823 -0.0061648255
000070 bf 58 12 3d c1 b6 e3 3c a0 e6 8d b7 f9 3b a3 3c
       0.035729166 0.027797105 -1.6915903e-05 0.019926058
000080 b4 33 0b 3c 45 69 96 3c df c4 bf bc f5 88 48 3c
       0.008496214 0.018360743 -0.023409305 0.012239684
000090 42 84 ad 3c 1c 93 b1 bc da 7e 59 3c d3 90 27 bc
       0.02118123 -0.021676593 0.013274873 -0.0102274
0000a0 f6 49 aa bc 1a 99 14 3d a1 81 16 3b ba 89 e0 3c
       -0.02078722 0.03627882 0.0022965448 0.027409423
0000b0 e4 cd f8 3c 3a 4f fd 3c 6d 1b 73 3b ce 61 44 3c
       0.030371614 0.030921567 0.0037095204 0.011986209
0000c0 eb 0d 46 bb 92 29 8c 3b f6 bb 4d 3c aa 9d 5a 3c
       -0.0030220698 0.0042774165 0.01255702 0.013343254
0000d0 30 cd 56 bc 71 3f 22 3d 7b b0 78 3c 91 a5 a4 bc
       -0.013110444 0.039611284 0.015178795 -0.02009848
0000e0 4f 11 81 bc 28 35 51 bc 68 46 0c 3c 22 8e 68 bc
       -0.015755324 -0.012769021 0.008561708 -0.014194043
0000f0 24 e3 ab bc db 67 af bc ca 79 28 3d e2 8c 83 bc
       -0.020982333 -0.021411827 0.041131772 -0.01605839
000100 af 86 83 3c a7 62 8c bc a6 16 38 bc 3f ca d7 3c
       0.016055433 -0.017136885 -0.011235869 0.026341556
000110 7a af 34 bb a0 b5 ec 3c 5b bb 3f bc 59 47 2e 3c
       -0.0027570412 0.0288952 -0.011702384 0.010637128
000120 84 f5 26 3d d0 0e 28 3d 6c 09 d3 3c 4f 34 bc bc
       0.040761486 0.04102975 0.025761329 -0.022974161
000130 2b a9 cb bc 70 9e 03 3d 7c 69 6d bc 5e b6 d2 bc
       -0.024860939 0.03213352 -0.0144904815 -0.025721725
000140 6b 6e ad bc fa 3a 7a 3b ff 75 1e 3b 94 bd 91 3c
       -0.021170815 0.0038182125 0.0024179218 0.017790593
000150 01 2d fe 3c ff 1e b6 bb 8c fd 9e 3c c5 9b 2c 3d
       0.031027319 -0.0055578942 0.01940801 0.04214074
000160 cb 31 f2 bb 88 67 59 3c c7 f3 06 bd 95 6b b9 bb
       -0.0073911897 0.013269313 -0.032947328 -0.0056585767
000170 0b 56 97 bb 56 91 c0 3c 58 b3 4e 3c d0 c9 34 bc
       -0.0046184114 0.023506802 0.012616001 -0.011034444
000180 fa 8e b0 bc 4a 44 9b 3c 07 93 be 3c f6 cd f4 3c
       -0.021552552 0.018953461 0.023263467 0.029883366
000190 ca 09 29 3d 52 d0 0e 3c e8 31 db 3c de e3 40 3d
       0.0412691 0.00871666 0.026757196 0.04709231
0001a0 97 64 b2 ba a8 27 5f 3c f1 a1 d3 3c cb ca 06 3d
       -0.00136103 0.013620295 0.025834056 0.032908242
0001b0 ab 71 c9 bc ee c8 01 3d 6d 0c cb bc 6a ea 3f bb
       -0.024590334 0.031685762 -0.024786199 -0.0029284009
0001c0 0a 1f f9 3c f2 d0 dd 3c 0a 8b 86 3c 8e 34 d2 ba
       0.030410308 0.027077172 0.01642372 -0.0016037391
0001d0 8a c3 9f bc 85 58 ca bc be 7b 6d bc 84 79 21 bc
       -0.01950242 -0.024700413 -0.0144948345 -0.009855632
0001e0 a4 31 b0 3a 63 d4 ad bc 77 f6 02 bb e1 6d 24 bc
       0.0013442528 -0.021219438 -0.001998333 -0.010035963
0001f0 01 33 17 bb 38 04 df 3c d0 80 4e 3b 42 7d 84 bc
       -0.0023071172 0.027223691 0.0031509884 -0.016173009
000200 ef 2d 17 3c 0f d0 dd 3c 9b 9f 0c 3d 96 16 c0 37
       0.00922726 0.02707675 0.0343319 2.2898701e-05
000210 be f7 b9 3c ac cd b3 bc ae c7 a9 bc 40 a0 23 3d
       0.02270114 -0.021948658 -0.020725098 0.03994775
000220 5a 95 10 bc 7f 10 f0 3c b9 50 14 3d 92 eb 0f bd
       -0.008824671 0.029304741 0.036209796 -0.035136767
000230 19 98 f4 3c 69 25 ac 3b 94 06 85 3c 8b 51 57 3b
       0.029857682 0.005253483 0.016238488 0.0032855
000240 43 76 f3 bc d7 f6 a3 bc 0b cd 70 3c b6 da 7e bc
       -0.029719478 -0.020015163 0.014697324 -0.015555074
000250 58 c3 ec 3c 22 0f 23 3c 13 12 ce 3c d6 25 a6 3c
       0.02890174 0.009952338 0.025155103 0.020281713
000260 d6 91 c7 bc 90 a8 1f bc f7 1e 0f 3c 5e 72 b0 bc
       -0.024361532 -0.009744778 0.00873541 -0.02153891
000270 40 1d 7c 3c 22 8f 0e 3d 0e b7 a2 3c 50 e1 c9 3b
       0.015387833 0.03480447 0.019862678 0.0061608925
000280 5c be 4b bd 69 2e c7 bb 13 51 d2 3c 2e 64 07 bd
       -0.049742088 -0.0060785306 0.025673425 -0.033054523
000290 2b a0 1d bc 24 4c 68 3c cb 2c 15 bd 12 ce d4 bb
       -0.009620707 0.01417831 -0.03641967 -0.006494292
0002a0 d7 24 a2 bc 64 61 f7 ba 07 03 ec 3b 0b 2a 53 3b
       -0.019792957 -0.0018873629 0.0072025093 0.0032221104
0002b0 0c 18 c2 bc e3 83 6e bb 29 51 17 bc e5 45 df bc
       -0.023693107 -0.0036394529 -0.009235659 -0.027255008
0002c0 e7 08 d1 ba 8e 92 60 3c ac 4f a2 bc 41 a1 9e 3b
       -0.0015948088 0.013706816 -0.019813381 0.0048410003
0002d0 e6 bb aa b8 b7 06 d4 3c 99 72 bb 3c c6 fb af 3a
       -8.1412305e-05 0.025882108 0.022881793 0.0013426475
0002e0 6c 34 07 3d b7 bc a5 bc 62 91 b0 bc 54 38 46 3b
       0.033008978 -0.020231588 -0.021553699 0.0030245977
0002f0 a5 0e 67 bc 94 2b cb bc 30 e4 8d 3c 4c 78 91 3a
       -0.014102613 -0.024801053 0.017320722 0.0011098473
000300 2b 50 0d bd b8 35 bf 3c 20 35 d6 bc be a0 ee bc
       -0.034500282 0.023341045 -0.026148379 -0.029129382
000310 41 5a 84 3c de cd 1e bd 44 da 63 bc 6d 28 be bc
       0.016156318 -0.03877055 -0.013907019 -0.023212636
000320 60 bb ef 3c 4c 44 d1 3b df 52 09 bd 9f 57 f0 3b
       0.029264152 0.0063863155 -0.033526298 0.007334664
000330 63 6b 7f bc 5f 87 03 3d 77 4a af bb 96 47 46 3a
       -0.015589568 0.03211152 -0.005349453 0.0007563768
000340 0a a6 09 bd 9c ab 0b 3b 48 01 de bb 2a 18 11 3c
       -0.033605613 0.0021312004 -0.006775055 0.008855859
000350 37 e3 15 bd 92 18 11 bd 6d 70 98 3c 42 0a 33 bc
       -0.036593642 -0.035423823 0.018608296 -0.010927739
000360 e3 ea 02 3d fb 96 19 bd a9 69 b4 bc 82 eb 91 bc
       0.031962287 -0.0374975 -0.022023039 -0.017812494
000370 26 88 5f 3c 95 d5 74 bc f7 05 24 3b b0 b0 af 3c
       0.0136433 -0.0149435 0.002502797 0.021446556
000380 84 e4 b3 3c 51 80 14 bb bd d8 b2 bc 32 d1 14 3d
       0.02195955 -0.002265949 -0.021831864 0.036332317
000390 ea 90 0d 3d b3 a9 be bb 48 71 b3 3b 82 b8 f3 3c
       0.03456203 -0.0058185696 0.0054761507 0.029751066
0003a0 69 0c 0c bc 6a 0d fb 3c 36 9e fc 3c ef 6f 6a 3c
       -0.008547881 0.030646045 0.03083716 0.014308914
0003b0 79 8f f1 bc 94 c2 bf bc 9a 91 c0 bc 2f 5c db 3b
       -0.029487358 -0.023408212 -0.023506928 0.0066943388
0003c0 f0 ac 1b bc ee 3c 69 3c 6e 5d f0 3c 1b e5 16 3d
       -0.009501681 0.014235718 0.029341426 0.036839586
0003d0 25 e8 15 3d 8a a6 89 3c a1 d5 a5 3c 88 3a 68 3b
       0.036598343 0.016803045 0.020243468 0.0035435278
0003e0 05 a6 41 3d 70 c5 c5 3c 1b 85 58 3d ea ae 2e 3c
       0.04727747 0.024141997 0.052861314 0.01066182
0003f0 96 02 dd 3c c0 c2 ed 3c 4f ec 76 3c 9e ec 0b 3d
       0.026978772 0.029023528 0.015070989 0.034161203

bias f4 [120]
000000 82 b4 00 3b ed b2 06 3d c6 69 04 bd e4 b3 28 bd
       0.001963884 0.03288548 -0.032327436 -0.041187182
000010 25 57 07 3d d0 29 16 3c 74 37 1a 3c 7e 05 c9 bc
       0.033042092 0.009165242 0.009412635 -0.024538752
000020 4d 6c b6 bc 7b 99 cf ba 15 3b 44 3b b2 d2 32 3d
       -0.022268439 -0.0015838587 0.0029942442 0.043657966
000030 90 ec f4 bc 75 ce d7 bb 1d 1b 9e 3c 33 e0 60 39
       -0.029897958 -0.006585891 0.019300038 0.00021445825
000040 21 71 77 3b 12 0b 16 bc d8 9d 70 3b 39 65 e9 bc
       0.003775664 -0.009157913 0.0036715176 -0.02849065
000050 01 9b fb 3a fa ef c8 3b c1 2c bc bc 3c 9c 15 bc
       0.0019195975 0.006132123 -0.02297056 -0.009131487
000060 d7 79 c9 3c 17 be f3 3c b3 f7 07 bd 96 b1 07 3c
       0.02459423 0.029753728 -0.03319521 0.008282086
000070 ba 77 39 3d 16 bb 08 3c 14 06 a8 bc d7 7a 65 3c
       0.045280196 0.008345386 -0.02051071 0.014006338
000080 82 43 dd bc fc b2 e6 bc 91 20 1e 3c 70 41 e8 bc
       -0.02700973 -0.028161518 0.009651319 -0.028351516
000090 aa 9e 87 3c 65 ab c1 3c c0 e5 a7 bc ea 3e cb 3b
       0.01655515 0.023641298 -0.020495296 0.0062025683
0000a0 7e 42 dd 3c 26 3e e3 bc 47 1a 85 bc f9 db b5 3a
       0.027009245 -0.027739596 -0.016247882 0.0013874761
0000b0 1f 72 24 bd 62 68 00 bd cd 4d a2 3a 44 86 e5 3c
       -0.040147897 -0.031349547 0.0012382806 0.028018124
0000c0 43 fb 91 3b ca 32 b5 bc e0 5e 01 3d b5 d9 44 bc
       0.0044550016 -0.022118945 0.03158462 -0.012014796
0000d0 4d 16 ea 3c b1 ae 29 bd e2 82 e8 bb 77 1e 14 bd
       0.028575087 -0.041426364 -0.0070956806 -0.036161866
0000e0 7a 4e 04 bd db 41 2a 3d 2e b1 b5 3c 5e 69 f0 bc
       -0.032301404 0.04156671 0.022179212 -0.029347118
0000f0 95 5a ba bc 4f 24 11 3d 10 6f 1e 3d e6 5e 6c 3c
       -0.022748271 0.035435017 0.038680136 0.014426922
000100 6f a3 23 3c 6a 18 f5 3a 9b cf c4 bc e9 e0 ce ba
       0.009987696 0.0018699293 -0.024024775 -0.0015783581
000110 91 52 09 bd ca bd 9c 3b ac 88 cd 3c 91 e0 99 bc
       -0.033526007 0.004783367 0.025089584 -0.01878384
000120 4e f6 80 bc 16 ca 30 3d c8 2d df 3c fa 40 91 bc
       -0.015742447 0.043161474 0.02724351 -0.017731179
000130 6c d8 5a b9 ef 20 58 bd f7 d6 1a 3c b8 45 91 bc
       -0.00020870724 -0.052765783 0.009450666 -0.01773344
000140 10 97 00 3d 55 3e ca 3c 14 d5 d7 bb 4e 2d 52 bd
       0.031394064 0.024687925 -0.00658668 -0.051312737
000150 cf b1 b0 bb 40 72 fa bb 04 af 4a 3b 5d 05 ca bc
       -0.00539229 -0.007643014 0.0030927071 -0.02466076
000160 8f 69 42 bc 6c e8 89 bb 8b 33 f7 bc a6 d0 6e bc
       -0.011865987 -0.004208615 -0.030175945 -0.014576113
000170 36 d8 0f bc 07 22 08 bd 15 d0 1c bc 55 00 13 3d
       -0.008779576 -0.033235576 -0.009571095 0.03588899
000180 7d 7c c5 3c a8 65 c7 bb 61 1c ac 3c ba 2d 1e 3d
       0.024107212 -0.0060851164 0.021009626 0.038617827
000190 c9 0d 8f bc c3 3a 43 3c 13 d6 02 3d f0 bb 19 3d
       -0.017462628 0.011915865 0.03194244 0.037532747
0001a0 ce 66 40 bc 84 5d c9 bc 11 eb 96 bb f8 98 03 bc
       -0.011743261 -0.024580725 -0.004605659 -0.008032076
0001b0 09 46 0e 3d 95 08 bb 3b f0 ed c0 3c 2c 15 c1 bc
       0.03473476 0.00570781 0.023550957 -0.023569666
0001c0 dc 41 ff 3c 31 25 c5 bb 9c f5 58 3c ac e2 86 3c
       0.031159334 -0.0060163965 0.013242152 0.016465507
0001d0 9c d0 99 3c ef a7 e6 3c 6c f4 fd 3c 0e 4b d5 bc
       0.01877623 0.028156249 0.031000338 -0.026036765

weight f4 [84, 120]
000000 c4 e1 cb 3d 43 98 e4 3c 02 98 40 3c 53 6c 89 3d
       0.09955171 0.027904635 0.0117549915 0.06710114
000010 0e b2 c8 bd f0 4b a5 3c 83 7f 14 3d 56 83 aa 3c
       -0.09799586 0.020177811 0.036254417 0.020814579
000020 4e 82 ee 3d 28 e9 b0 bd 68 c5 66 3d ef ed 5c 3d
       0.116459474 -0.08638221 0.056340605 0.05393785
000030 b5 6e d6 3d 00 9f 45 3d 6c 4d 15 bc bb 94 cd bc
       0.104703344 0.048247337 -0.009112697 -0.025095334
000040 91 4c 99 3d 57 f5 d1 3d 78 38 3d bd d9 bf 91 3d
       0.07485307 0.10251873 -0.04619643 0.0711667
000050 3d 42 08 3d e0 15 a1 3d 41 81 bc 3d ee 3d 03 3d
       0.033266295 0.078655005 0.09204341 0.032041483
000060 18 43 50 3d 34 72 9a bc 28 53 01 bd 87 d7 9e bd
       0.050845236 -0.018853284 -0.031573445 -0.07755952
000070 2f 15 63 3d 52 5a 28 3d c6 d7 5f bd 5e 37 b9 bb
       0.055440124 0.04110176 -0.054649137 -0.0056523522
000080 0d 42 96 3d 1d 3d 98 3d 95 ee a4 3d bd a4 55 3d
       0.07336817 0.074335314 0.080533184 0.05215906
000090 9d 2b 2b 3c 9c 30 e3 3c d2 57 87 bc ba 70 9b bd
       0.01044741 0.02773314 -0.016521368 -0.0758986
0000a0 ac b6 be bb 59 c5 96 3b 9a e8 c8 3c af 7b 6b 3a
       -0.005820116 0.0046011624 0.024524976 0.0008982969
0000b0 dd aa b8 bd a4 49 5b bd 30 63 1c bd e2 6f d4 bd
       -0.090169646 -0.053537026 -0.03818053 -0.103729025
0000c0 46 10 bd 3c dc 4c 92 bd 01 9b d3 3c 96 fc d8 3c
       0.023079049 -0.07143566 0.025830748 0.02648763
0000d0 0b f3 0e bd 4d 18 12 3d 50 e3 d6 bc cc 75 be bd
       -0.034899753 0.035667706 -0.026231438 -0.09299812
0000e0 62 d2 a8 bd 0c 83 36 3d fb 78 a1 3d fd 00 8c 3d
       -0.08243252 0.04455857 0.07884403 0.06836126
0000f0 d2 92 3a 3d 0a 00 9e 3d 48 f8 66 bd 6c 63 17 bc
       0.045550175 0.07714851 -0.056389123 -0.009240013
000100 7a f9 f5 bc a4 3d 50 bc 8a 86 47 bc c2 95 2e bc
       -0.030026186 -0.012710009 -0.012178073 -0.010655822
000110 b4 70 c7 b9 90 be 19 3d 53 54 3a 3d 7e 49 4c bd
       -0.00038040208 0.03753525 0.045490574 -0.049874775
000120 a7 b9 0a bd c4 18 7c 3d 79 39 83 bd e6 a6 37 bd
       -0.033868458 0.061547056 -0.064074464 -0.0448369
000130 24 73 74 bd cd 2b 54 3d b0 2e 2c bb bb ac d8 3d
       -0.05968012 0.051799584 -0.0026272945 0.10579821
000140 0e 15 70 bd 0d fd 94 bd 43 2d aa bd c3 b6 a4 3c
       -0.05861383 -0.07274828 -0.08309414 0.020106679
000150 20 0a b4 3d 31 02 50 3d 8b 6a ba 3c 63 54 00 3d
       0.08790994 0.05078334 0.022755882 0.031330477
000160 cd 8c ec 3c 33 41 9b bd ed 1f 82 3d 6b 97 30 bd
       0.028875733 -0.07580795 0.063537456 -0.043113153
000170 32 31 9e 3d 49 31 23 3d b1 4b 7d bd 8d 4e 51 bd
       0.07724227 0.039841924 -0.061839763 -0.051100302
000180 56 43 95 bd 32 4a ad bd e2 bf 23 bd fd 43 6b bd
       -0.07288234 -0.08461417 -0.039977916 -0.057437886
000190 bd 3e 89 3d eb 09 f7 3c d9 ff 14 3d 2d 52 a8 3b
       0.067014195 0.030156096 0.036376808 0.0051367492
0001a0 43 c4 4b 3c 49 d3 0f 3c c9 2f b7 3d 0e 52 19 bc
       0.012436929 0.008778402 0.08944661 -0.009357942
0001b0 9b d0 7a 3d a4 21 e2 3c 25 1f 39 3d 90 5d 91 3c
       0.061234098 0.027603932 0.045195717 0.01774481
0001c0 11 4a 12 3d 01 84 83 3d e9 eb a2 3d bf f8 91 bc
       0.035715166 0.06421662 0.079551525 -0.017818807
0001d0 70 95 cf 3c 59 f5 cb 3d 60 db b0 bd fd c7 8b bd
       0.025339812 0.09958906 -0.086355925 -0.06825254
0001e0 b9 5a 3a bd 20 f4 38 3c 48 0e b0 3d 28 1f d1 3c
       -0.045496676 0.011288673 0.08596474 0.025527552
0001f0 23 d9 08 bd 1c 88 91 bd 71 7b 9a bd 57 b8 5e bd
       -0.033410203 -0.07106039 -0.07543076 -0.05437502
000200 d8 20 3b 3d 65 41 73 3d 21 ab 2b 3d be fd 9d bc
       0.04568562 0.059388537 0.041911248 -0.019286033
000210 2e 4d e4 3d 9a 02 a3 3d 6f 04 03 3d 9a 2a 13 3c
       0.11147533 0.079594806 0.03198665 0.008982325
000220 71 b6 3f bd 5b 3a 93 3c d4 8e 02 bd 7d 21 49 3d
       -0.04680485 0.017972162 -0.031874493 0.049104203
000230 a9 2f aa 3d 6f 3b a7 3d 1a 7e 54 bd 37 78 8d 3d
       0.08309872 0.08165633 -0.051878072 0.06907695
000240 cc a2 c5 3d 82 e6 4c 3d 7d 68 6c bd a8 ce d7 bc
       0.09650192 0.050024517 -0.057716835 -0.026343659
000250 9d 61 d6 3d 98 fa 59 bd 93 55 a0 bd 43 12 86 3c
       0.10467837 -0.0532175 -0.07828822 0.01636613
000260 93 80 dd bc 1f d9 6b bb 37 0e 79 bc 83 db 9e 3d
       -0.027038848 -0.0035987569 -0.015201143 0.07756712
000270 34 d6 4c bd e5 a4 e8 3b 5f ef c2 ba 9f 34 42 bc
       -0.050008968 0.007099735 -0.0014872364 -0.011853366
000280 13 4e c9 bd f7 f5 82 bd 1c 4f 3b 3d b5 65 d0 3d
       -0.098293446 -0.0639457 0.04572974 0.10175649
000290 9d 5d e4 bc 5a 92 c1 3c 76 3b 5e 3d 37 68 e8 bd
       -0.02787667 0.023629356 0.054255925 -0.113480024
0002a0 66 5c ba bc fc 45 45 3c e6 eb c5 3d 07 f5 11 3d
       -0.022749137 0.012040611 0.09664135 0.035634067
0002b0 9b 1b 8a 3d c4 0b 9a bd 95 98 2f 3d 04 1a c5 bd
       0.067435466 -0.07521775 0.042870123 -0.09624103
0002c0 09 a3 f2 bc 4d 5d 93 bd 45 7b 3e bd cf 14 96 bd
       -0.029618757 -0.0719553 -0.046504278 -0.07328188
0002d0 04 47 5b 3c 62 64 1f 3d 4f f2 3a 3d 13 d7 1d 3d
       0.013383631 0.038914092 0.04564124 0.03853519
0002e0 66 82 83 3d 4d 4a 64 bd 53 6d b6 3d f6 17 e3 3c
       0.06421356 -0.05573492 0.08907571 0.027721386
0002f0 99 38 2a 3d b2 93 18 3d da fc e2 3d 04 6d ac bd
       0.041557882 0.03725023 0.11083384 -0.084192306
000300 99 90 93 3d 9e 05 b0 bd 18 42 61 bd a5 57 50 3d
       0.07205314 -0.085948214 -0.054994673 0.050864834
000310 27 bc 9d 3d 33 89 26 3d 3f d6 97 3a a8 71 7c bd
       0.07701903 0.040658187 0.0011584236 -0.06163183
000320 e7 9c 3b bd 83 ac ae 3c 5f f1 9a 3d 89 e3 29 3c
       -0.04580393 0.021322494 0.07565569 0.01036919
000330 bc 7f 45 bd 9c 2c a7 bc 67 4c a4 3c f7 5e 48 3b
       -0.04821752 -0.020407014 0.020055963 0.0030574182
000340 5a e8 08 bd d7 c3 b9 bd 03 27 67 3d c4 45 5b 3d
       -0.033424713 -0.090705566 0.05643369 0.05353333
000350 cf ba af bc 34 7e 9b 3d 60 0e 71 bc 58 8b 94 3d
       -0.021451382 0.07592431 -0.0147129 0.0725314
000360 0e 21 88 3c 1f 6e f2 bb 93 f6 ec bc be 67 08 bd
       0.016617324 -0.0073983814 -0.02892617 -0.03330206
000370 a7 a6 19 3c 9a 18 af bd d6 bd a0 3d c8 2e ac 3d
       0.009378112 -0.08549614 0.07848708 0.0840736
000380 36 02 01 3d e4 b4 ef 3d 1a 16 9b bc 99 cf 94 bd
       0.03149625 0.11704424 -0.018931437 -0.072661586
000390 c8 61 20 bd 0c 5c a5 3d 23 04 9f 3c c7 a5 e3 bc
       -0.03915575 0.08074197 0.019411152 -0.02778901
0003a0 32 30 4e 3d 85 81 3e bc 11 3d a4 3d d6 44 d9 bd
       0.05033893 -0.01162756 0.0801946 -0.106088325
0003b0 a8 b8 4b bc 25 eb ae 3d 67 21 64 bd 03 13 9c 3d
       -0.012434162 0.08540944 -0.055695917 0.07620814
0003c0 db 17 ad 3d d8 fa 94 3d 45 9a 8a bd 29 67 26 bc
       0.08451816 0.07274407 -0.06767706 -0.010156431
0003d0 79 f7 b1 bd 1d 5d 43 3d e4 e4 97 bd 92 bd 45 3d
       -0.0868978 0.04769622 -0.07416704 0.04827649
0003e0 18 83 05 bd f9 12 3c bd 0c 60 7c bd b6 83 bc 3d
       -0.032595724 -0.04591653 -0.061615035 0.09204809
0003f0 70 5e 60 bd f2 cc b8 3c d5 4a 68 bd a0 15 77 3d
       -0.054777563 0.022558663 -0.05671199 0.060323358

bias f4 [84]
000000 d7 64 91 3d c7 84 a9 3c c6 6b dc bc eb 5d ec b9
       0.07099312 0.020693196 -0.02690686 -0.00045083402
000010 74 23 83 3d 46 9a 7c bd 45 ec b9 3d 38 9d c5 3d
       0.064032465 -0.061670564 0.09078268 0.09649128
000020 af 20 35 3d 08 67 2f 3b 59 6f be bc 0b 95 98 bd
       0.044220623 0.0026764292 -0.023246454 -0.07450303
000030 51 a4 40 3b 84 af 56 3d e2 cd 55 bd 01 a6 dc 3d
       0.0029394815 0.05241348 -0.0521983 0.1077385
000040 18 c8 d8 3c 4d 00 f9 3c 79 9d 85 3d 83 97 0a bd
       0.0264626 0.030395651 0.06524176 -0.0338359
000050 e2 22 c1 3d 65 d2 a0 bd e9 0d 85 bd cb 50 9e bd
       0.094304815 -0.078526296 -0.06496794 -0.07730254
000060 14 c8 8e bd 50 1d 93 3d b1 ef 92 bd 9a 5c 98 3d
       -0.069717556 0.07183325 -0.07174624 0.07439537
000070 73 49 c7 3c 4b 0b 51 bd 75 7e 2c 3d 3f 21 1b bd
       0.024327016 -0.05103616 0.042112786 -0.037873503
000080 23 ea 9f bd 2c 30 b4 3d 67 37 21 3d d3 4d 64 bd
       -0.0780833 0.087982506 0.039359476 -0.05573828
000090 b7 6a 30 bb a1 6b 7b bd 30 6e 9c bd 89 5e cf 3c
       -0.0026919076 -0.06138194 -0.07638204 0.025313633
0000a0 4e e5 72 bd 9a 76 b4 3d c9 34 5a 3c 27 f4 e3 3c
       -0.059300713 0.08811684 0.013318249 0.027826382
0000b0 17 e1 91 bc b2 b6 59 bb b2 1c c6 3d e2 f2 a0 bc
       -0.017807527 -0.0033220467 0.09673442 -0.019647066
0000c0 3f f4 35 bd d4 23 bf 3d fc d0 08 bd 4b a3 8c 3d
       -0.044422384 0.093330055 -0.033402428 0.06867083
0000d0 fa a4 86 3d 8a 0f a6 bb 14 c5 08 3d 99 48 16 bd
       0.065744355 -0.0050677704 0.033391073 -0.03669033
0000e0 64 6e 42 3d e8 b5 31 3d 59 d1 71 bc 7d 72 c0 3c
       0.047468558 0.04338637 -0.014759385 0.023492092
0000f0 fb ce fe bc 69 fe 17 bd 8b d5 8c 3d 0b b1 5c bd
       -0.031104555 -0.03710786 0.068766676 -0.05387978
000100 16 d4 59 3b b8 9b 29 3d d0 d2 63 bd e9 dc 9a bd
       0.0033237985 0.04140827 -0.05562097 -0.075616665
000110 bf 76 4d bc 74 7e e6 bc 99 89 d7 bc a4 94 99 bd
       -0.012540518 -0.02813647 -0.026310729 -0.07499054
000120 9c 09 d0 3b 09 7f c0 3b 4b 71 a5 bc 0b 92 c2 bc
       0.006348802 0.005874519 -0.020195624 -0.02375128
000130 02 e2 08 bd 51 f4 93 bd 9a 09 93 3d 90 ab c7 3d
       -0.033418663 -0.07224334 0.07179566 0.0974952
000140 fe 46 e7 3c 00 e4 4c 3d cb 23 7e bd 40 03 35 bd
       0.028232094 0.050022125 -0.062045854 -0.044192553

weight f4 [10, 84]
000000 4c bd 2b 3d 31 ab b9 3c 77 c1 da 3c 75 7d 15 3d
       0.041928574 0.022664638 0.02670358 0.0364966
000010 dd 6d 35 be 22 34 88 bb 0e b5 68 bd 6d 7b 62 bd
       -0.17717691 -0.0041566053 -0.056813292 -0.05529349
000020 9e 1a 2e 3d 39 ba ed 3d 25 f8 8d 3c 40 21 35 be
       0.042505853 0.11607785 0.017330239 -0.17688465
000030 0a e9 7a bc bc 2b da bd 84 4b b8 bb 0a b3 a8 bb
       -0.01531435 -0.10652873 -0.0056242365 -0.0051482962
000040 96 20 bb 3d e3 a1 b4 bd 43 29 5b be b0 cd 91 3d
       0.09137075 -0.0881994 -0.21402459 0.0711931
000050 02 20 c9 bd 72 31 e3 bd ca 4b cb bc e6 6c cc bd
       -0.09820558 -0.11093415 -0.024816412 -0.09981708
000060 b5 bf fb bd e1 b8 3c bd 9c b4 f9 bc 30 fe 86 bd
       -0.122924246 -0.04607475 -0.03048163 -0.06591451
000070 f8 f0 74 3c 2e 5c 2e be 89 71 57 bd 7a f9 0c 3b
       0.01495003 -0.17027351 -0.05259851 0.0021511004
000080 7b 2c ae bd 3b c6 25 be 5b e4 84 3d a3 f8 a0 3d
       -0.08504578 -0.161889 0.06488868 0.07859924
000090 0e 66 c1 bd 17 0e e1 3c 45 c4 97 bd cb 71 59 bd
       -0.094432935 0.027472539 -0.07410482 -0.053087037
0000a0 d1 f0 c5 bc 68 41 be bd 29 de 92 3d 79 7c 0c be
       -0.024162682 -0.09289819 0.0717128 -0.13719358
0000b0 15 13 d5 bd 4b 3f 44 bd 2e 9a bc 3d a8 31 c4 bd
       -0.1040403 -0.047911923 0.09209095 -0.09579784
0000c0 fb 5c bd 3d 54 3d 2d be 53 d3 f8 3c d2 bc 19 3e
       0.0924625 -0.16917926 0.030374205 0.15013435
0000d0 98 d3 1b 3e e9 ab 18 3e 52 eb 80 bd 91 8a 7c 3d
       0.15217435 0.14909329 -0.06294884 0.061655585
0000e0 9c 4f 7f bd 22 d1 be 3d f7 ce 74 bd 74 0a 59 3b
       -0.06233178 0.09317233 -0.05976769 0.0033117803
0000f0 65 e2 09 bc 37 55 64 bd 3a 03 a1 3c e2 81 26 3e
       -0.008415793 -0.05574533 0.019654859 0.16260484
000100 17 35 1c bc 6a eb 3a 3e cd 73 14 3d 19 c7 d2 3c
       -0.009534142 0.18253866 0.03624325 0.025729703
000110 78 3a ea 3d 4a ed be bc a4 2f 82 bd 6c 8c bb bd
       0.11436933 -0.023306508 -0.06356743 -0.09157643
000120 81 11 42 bd bc c9 ab 3c e5 45 7e bd 65 71 1d bd
       -0.047379974 0.020970218 -0.062078375 -0.03843822
000130 77 f6 cc bd 22 eb 0c 3e 7d 96 74 bd 61 d5 eb bd
       -0.10007947 0.13761571 -0.05971383 -0.11515308
000140 69 b7 be 3d 8c 3b 75 3c d7 dd a8 3d 2a 8d ae bc
       0.093123265 0.01496781 0.082454376 -0.021307547
000150 f2 bc d9 3d 0b fe 47 be c1 c7 e2 bb 84 7d f1 3d
       0.106317416 -0.19530503 -0.006920785 0.11791518
000160 67 3e af 3c 79 4b ae 3d 8d 62 13 bd a5 86 d3 bc
       0.02139206 0.08510489 -0.035982657 -0.02582104
000170 34 85 dc 3b 1e 58 22 3b a4 01 09 be 04 04 34 bd
       0.0067297462 0.002477176 -0.13379532 -0.043949142
000180 8a 1e 09 3e b1 8a 12 be f0 42 f4 bd d2 af fc 3d
       0.13390556 -0.14310719 -0.1192683 0.123382226
000190 b9 a9 01 3e 1e 02 90 3c 15 95 7d bd f6 d3 8a 3d
       0.126624 0.017579135 -0.061909754 0.067787096
0001a0 dd 44 65 3d f8 da 89 3d f6 b6 45 3e f5 87 80 3d
       0.055973876 0.06731218 0.19308075 0.06275932
0001b0 e9 2a fb 3d be f2 8b bd ad dc 5b 3d f9 90 fd bd
       0.12264044 -0.06833409 0.05367725 -0.12381167
0001c0 88 8d 8e bd 5b 0c 0e be 50 9b c2 bd c5 93 b3 bd
       -0.06960589 -0.138719 -0.0950228 -0.08768419
0001d0 a1 b0 0e 3e 2d 82 ef bd 00 9c 4f 3d 40 f6 bb bb
       0.13934566 -0.11694751 0.050685883 -0.0057361424
0001e0 16 be 9e 39 47 d2 3c 3d c4 36 95 3b 4b e2 27 be
       0.00030277733 0.046098974 0.0045536477 -0.16394918
0001f0 07 39 88 3d c5 7c d6 bd 00 00 e5 bd fc 36 cf bd
       0.06651502 -0.10473017 -0.111816406 -0.10117909
000200 ec 6a c6 3d 6f 0c 23 3b 10 18 f6 3d cc 14 a9 bd
       0.096883625 0.0024879237 0.12016308 -0.0825592
000210 02 1b e5 bd 5e 3e d4 bd c5 a0 11 3c 7e e2 b1 bd
       -0.11186792 -0.10363458 0.008888428 -0.08685778
000220 37 85 2f 3d e8 9b 2b be 25 65 c5 bc 63 08 f4 3d
       0.042851653 -0.16758692 -0.024096081 0.11915662
000230 86 7f 24 3d 24 76 3b be 44 79 a2 3d 4f ef 10 be
       0.04016068 -0.18306786 0.07933286 -0.14153789
000240 50 2d 3b 3c 77 e1 3a 3e 1a ad 2f 3d aa ea 23 be
       0.011424378 0.1825007 0.042889692 -0.16007486
000250 79 f4 e4 bd bd 47 23 3c 51 fd 21 3e 37 5f 00 3e
       -0.11179442 0.009965834 0.15819289 0.12536322
000260 26 2b 5e bd c9 95 c1 3c 68 87 c1 3d 97 c3 6a bd
       -0.05424037 0.023630993 0.09449655 -0.057315435
000270 76 6d 24 be ec ec 43 be c9 bb 19 be 18 fd 0a 3e
       -0.16057381 -0.19133347 -0.1501304 0.1357311
000280 f2 c6 ca 3d 72 48 0a 3e 1d 6c d7 bd 2f 21 16 be
       0.09901227 0.13504198 -0.10518668 -0.14661096
000290 10 60 13 be a6 d4 f9 bd 77 7d a5 bd b7 d2 12 be
       -0.14392114 -0.121987626 -0.08080571 -0.14338194
0002a0 7c bc 56 3d 17 bb 5f 3d 23 e8 83 bd 3c 56 c7 bb
       0.052425846 0.054621782 -0.06440761 -0.006083278
0002b0 30 ba b8 3c e7 77 42 3d a7 c6 f6 3d 59 c2 84 bd
       0.022549719 0.04747763 0.12049609 -0.064823814
0002c0 66 ad 0f bd 24 3d 1b be 07 43 cd 3d 68 a4 b4 bd
       -0.035077475 -0.15160042 0.1002255 -0.088204205
0002d0 f2 93 90 bd 31 3c aa bc 18 61 48 3b ba f9 b9 3d
       -0.07059468 -0.020780655 0.003057545 0.09080835
0002e0 17 fc 1e be be 82 8e 3d 8b 30 dc 3d 0c f1 13 bd
       -0.15525852 0.06958531 0.10751446 -0.036118552
0002f0 2e 94 e0 3d dd 92 dd bd 8c 68 04 be ec 03 69 3d
       0.10965763 -0.108190276 -0.12930506 0.056888506
000300 98 19 dc 3d fe 68 e6 bc cf c5 1d be 3a 54 0b 3e
       0.10747069 -0.028126236 -0.15407489 0.13606349
000310 9e c8 02 bd a0 5c 16 3d 8f 91 2d 3e be b1 df bc
       -0.031929605 0.036709428 0.16950057 -0.027306434
000320 4e a1 26 bd b0 e2 ab 3d b2 8b 89 bd d4 30 b6 bd
       -0.040681176 0.083928466 -0.06716098 -0.08896032
000330 cf 8d fa 3d e3 36 0c bd b4 7e 28 be d7 96 57 3d
       0.12234079 -0.03423203 -0.16454583 0.052634086
000340 e0 ba 0c 3d 2d 5b 6e 3c bc dc da 3b d4 f6 81 bc
       0.034357905 0.014548105 0.0066791456 -0.015864767
000350 90 89 98 3d 61 a8 59 bc 12 13 05 3d c0 1f 20 3e
       0.07448113 -0.013284774 0.03248889 0.15637112
000360 7d a7 08 bd 6b a7 cf 3d 3c 5f 0a bd 41 72 fc bd
       -0.033362854 0.10139354 -0.03378223 -0.1232648
000370 9d f2 d9 3d e7 98 d0 3c 9c 25 88 bd fd c2 f3 bd
       0.10641978 0.025463535 -0.066477984 -0.119024254
000380 c8 b4 05 3d c8 b8 b2 3d 07 0e af bd bc 10 c8 3d
       0.03264311 0.087266505 -0.085475974 0.09768817
000390 08 e3 49 3d c0 bc 24 be 17 47 f5 bc 5e cd 32 bd
       0.04928878 -0.16087627 -0.029941125 -0.043652885
0003a0 a3 f0 cf 3c bf b1 0c 3d 57 51 e9 bd 1d fe 0d be
       0.0253833 0.0343492 -0.113924675 -0.13866468
0003b0 70 46 95 bd 46 ba ca 3d 2a fd 60 3d 0f 7f 72 bc
       -0.072888255 0.0989881 0.054928936 -0.014800801
0003c0 74 ca c3 bd 6e f0 99 bc d7 8f fb bd 83 63 20 be
       -0.09560099 -0.018791404 -0.12283295 -0.1566296
0003d0 99 94 01 3c 9b cd f0 3c de a2 c7 3d 8f 71 13 3c
       0.007908964 0.029394915 0.09747861 0.008999242
0003e0 0f 71 e1 3d c1 e5 00 3b b4 40 c9 bc 2c 25 a9 3b
       0.11007892 0.0019668194 -0.024566986 0.005161902
0003f0 3a f2 cd 3d 86 b0 e0 3d 5b 2b 5d bd 97 14 19 be
       0.10055967 0.10971169 -0.053996425 -0.1494926

bias f4 [10]
000000 5d b6 b0 bd 92 72 08 3e 30 29 90 3d f3 78 06 3d
       -0.08628533 0.13324955 0.07039106 0.03283019
000010 06 ad d6 3d bb 10 15 be 27 24 5e 3c ea 7f f6 bd
       0.1048222 -0.14557163 0.013558424 -0.120361164
000020 df bd 7d bd c8 1b c1 3d
       -0.061948653 0.09429127
