exp/LeNet/module_7.pth (torch, 489607 bytes, 10 tensors)

weight f4 [16, 3, 5, 5]
0	0x3cda8c7c	0.026678316
1	0x3dac7da0	0.084223986
2	0xbd3ce6ca	-0.046118535
3	0xbdfbc31a	-0.12293072
4	0xbdfc25be	-0.12311886
5	0x3dae34bd	0.08506153
6	0x3dff38d7	0.12462013
7	0xbd286cfb	-0.041119557
8	0x3ab2fe70	0.001365615
9	0x3db4b25b	0.08823081
10	0xbd8fc986	-0.070208594
11	0xbdc79f0a	-0.09747131
12	0x3d6a1cc3	0.057156336
13	0xbd656a5d	-0.05600964
14	0x3d89545a	0.06705542
15	0x3d264db4	0.040601447
16	0xbe0c5064	-0.13702542
17	0xbe229525	-0.15877207
18	0xbe2c119f	-0.16803597
19	0x3d8a2636	0.067455694
20	0xbdad0007	-0.08447271
21	0xbdc16447	-0.094429545
22	0xbd682de9	-0.05668441
23	0xbd9ba5bd	-0.075999714
24	0xbdf28d57	-0.11843365
25	0x3d98319f	0.074313395
26	0xbc9432c9	-0.018090622
27	0xbd2fd028	-0.042923123
28	0x3ccab5d6	0.02474491
29	0x3bf7855e	0.0075537404
30	0x3d9aa87a	0.075516656
31	0x3df3ce96	0.119046375
32	0x3d92da55	0.0717055
33	0xbd33d628	-0.043905407
34	0xbde209b3	-0.11037006
35	0xbdda174b	-0.10648974
36	0x3ca0998e	0.01960447
37	0x3a760eda	0.00093863683
38	0xbd149d52	-0.036282845
39	0xbe00e1b0	-0.12586093
40	0xbe183b14	-0.14866287
41	0xbcf22b0b	-0.02956154
42	0xbd47ac6f	-0.04874843
43	0xbde71ed2	-0.112851754
44	0xbe424a8e	-0.18973753
45	0x3b6e04eb	0.003631885
46	0xbd909c57	-0.070610695
47	0x3c903899	0.017605113
48	0xba95e358	-0.0011435552
49	0xbda516b6	-0.080609724
50	0x3c5d1393	0.013493436
51	0x3e02558a	0.12727943
52	0x3de8f331	0.1137451
53	0x3e412638	0.18862236
54	0x3e132485	0.143694
55	0x3e32ca03	0.17459874
56	0x3c11ebdd	0.008906332
57	0x3e3206c3	0.17385392
58	0x3e483249	0.19550432
59	0x3dd5419f	0.10412907
60	0x3dc93b23	0.098257326
61	0x3d193391	0.037402693
62	0x3d9b8111	0.07592977
63	0x3da3a5d8	0.079906166
64	0x3d0fc8b9	0.035103533
65	0x3d7a4d56	0.06110891
66	0xbd369078	-0.04457137
67	0xbcfc5f35	-0.030807117
68	0x3de2b6d1	0.11070026
69	0xbd83dfb2	-0.06439151
70	0x3e23ca50	0.15995145
71	0x3e5acc46	0.21366987
72	0x3dca9784	0.098921806
73	0x3e232f7f	0.15936087
74	0x3e263b9b	0.16233675
75	0x3e0906b0	0.13381457
76	0x3e2462d6	0.16053328
77	0x3d482e02	0.048872
78	0x3e42f8be	0.190402
79	0x3dd3276b	0.10310253
80	0x3dc9013b	0.09814688
81	0x3e35039a	0.17677155
82	0x3d8df4db	0.06931468
83	0x3dfe3ab2	0.12413539
84	0x3e448a86	0.19193467
85	0x3e0d6ab0	0.1381023
86	0x3e1f2b78	0.15543926
87	0x3df4a5e9	0.11945707
88	0xbd8e7116	-0.06955163
89	0xbbd582c2	-0.0065158317
90	0xbe0113a2	-0.12605146
91	0xbd921e70	-0.07134712
92	0xbe608a1a	-0.21927682
93	0xbe6742fa	-0.22584143
94	0xbd1c62b9	-0.038180087
95	0xbe01d39f	-0.12678383
96	0xbe3b21d1	-0.18274619
97	0xbe8752d2	-0.26430374
98	0xbdd315d2	-0.10306896
99	0xbe7ff930	-0.24997401
100	0xbd4b39e2	-0.04961575
101	0xbbb83156	-0.0056211157
102	0x3dfd5de8	0.12371427
103	0xbd966f7c	-0.07345483
104	0xbbe18c16	-0.0068831546
105	0x3e248b55	0.16068776
106	0x3d7837b4	0.060599998
107	0x3c90e85c	0.017688923
108	0x3e0b9856	0.1363233
109	0x3d15ecb1	0.03660268
110	0x3cdb6288	0.026780382
111	0x3d4da01c	0.05020152
112	0x3d5a0599	0.053227995
113	0x3d862e0e	0.06551753
114	0xbdb56afa	-0.08858295
115	0xbe843f28	-0.25829434
116	0xbe905ce8	-0.28195882
117	0xbea33400	-0.3187561
118	0xbe602c28	-0.21891844
119	0xbe205e88	-0.15661061
120	0xbe790b33	-0.24320678
121	0xbe87027b	-0.2636908
122	0xbe1ff8dc	-0.15622276
123	0xbea7c737	-0.32769176
124	0xbe79f8f5	-0.24411376
125	0xbb914c5c	-0.0044341516
126	0x3e21cc81	0.15800668
127	0x3e2955f0	0.16536689
128	0x3e2ce9f6	0.16886124
129	0x3dfefb3e	0.124502644
130	0x3e095a5e	0.13413379
131	0x3e3da0a0	0.18518305
132	0x3e5b8d4e	0.21440622
133	0x3e7f38eb	0.24924056
134	0x3e515f18	0.20446432
135	0x3e13df43	0.14440636
136	0x3e430180	0.19043541
137	0x3e50e322	0.20399144
138	0x3e4cf6e2	0.20016053
139	0x3d826f05	0.063688315
140	0xbd131dfa	-0.03591726
141	0xbe09b508	-0.13447964
142	0xbcd4b538	-0.025965318
143	0x3d37a99c	0.044839486
144	0xbd19e1fd	-0.037569035
145	0x3c3c9a3f	0.0115113845
146	0xbda16abf	-0.07881688
147	0xbde98244	-0.11401799
148	0xbcb84db6	-0.022497993
149	0x3d802634	0.06257287
150	0x3da357fd	0.07975767
151	0xbe018b52	-0.12650803
152	0xbda27724	-0.079328805
153	0x3c527c6a	0.012847045
154	0xbdbf9648	-0.09354836
155	0xbc33bfa6	-0.0109709855
156	0xbdda3479	-0.106545396
157	0xbd94c1ef	-0.072635524
158	0x3d90ba98	0.0706684
159	0xbdb64cf5	-0.08901397
160	0x3d16f3c9	0.036853585
161	0x3c96decb	0.018416783
162	0x3d9e59d5	0.07731978
163	0x3e024bbb	0.12724201
164	0x3d03e343	0.032199156
165	0x3cade16e	0.021225657
166	0x3db5ebc3	0.088828586
167	0xbc93aff0	-0.01802823
168	0x3db171bf	0.086642735
169	0xbd99ca0b	-0.0750924
170	0x3c0b2dd9	0.008494818
171	0x3b5e7111	0.0033941905
172	0xbd4ed476	-0.050495587
173	0xbddaf4a7	-0.10691195
174	0x3da568ba	0.08076616
175	0xbd990140	-0.074709415
176	0xbd2cbc3b	-0.042171698
177	0xbb99bd76	-0.004691775
178	0xbd87c4c1	-0.06629325
179	0xbc1b5ba4	-0.009482298
180	0xbc966976	-0.018360835
181	0x3d351fe4	0.044219866
182	0x3d5738a5	0.052544255
183	0xbd4efd70	-0.050534666
184	0x3d93c56c	0.072153896
185	0x3bc5b29e	0.0060332557
186	0x3dd0a557	0.10187786
187	0xbd7020c8	-0.058625013
188	0x3db7ad61	0.08968616
189	0xbdc25f1a	-0.094907954
190	0xbd0103cc	-0.03149776
191	0xbd3ee873	-0.0466084
192	0xbdee87ba	-0.116469815
193	0xbd4f5788	-0.050620586
194	0xbd1264e3	-0.035740744
195	0xbe048e71	-0.12944962
196	0xbda26600	-0.07929611
197	0xbd156c5d	-0.036480296
198	0xbcbab44d	-0.022791052
199	0xbe1eb55d	-0.15498872
200	0x3ce6a0ff	0.02815294
201	0x3d021818	0.03176126
202	0x3deea30b	0.11652192
203	0x3e03fc2e	0.12889168
204	0x3cf7ef72	0.030265544
205	0x3d189a3d	0.037256468
206	0x3db53a5c	0.08849022
207	0x3d238ac3	0.039927255
208	0xbda76dd3	-0.08175244
209	0x3dcf0d23	0.101099275
210	0x3c484c00	0.012225151
211	0x3d8c6831	0.068558104
212	0x3e265a5a	0.16245404
213	0x3c9d65f8	0.019213662
214	0x3df07ff7	0.11743157
215	0x3d163b87	0.036677863
216	0xbc5e5ebd	-0.013572392
217	0xbd8a2d3d	-0.0674691
218	0x3dcfa139	0.10138173
219	0x3d02e9df	0.031961318
220	0x3c9f693e	0.019459363
221	0xbd386988	-0.045022517
222	0xbc15df14	-0.009147424
223	0x3d70e7f5	0.05881496
224	0xbd841e39	-0.06451077
225	0x3d68b1ae	0.056810074
226	0xbd970ccc	-0.07375488
227	0x3d92faad	0.07176719
228	0x3d7a25b3	0.06107111
229	0x3db9c562	0.09070851
230	0xbccce410	-0.025011092
231	0x3d3b85e5	0.04578199
232	0x3d1dc906	0.03852179
233	0xbc84e816	-0.016223948
234	0x3d29b88d	0.041435767
235	0x3e010159	0.1259817
236	0x3de3e481	0.11127568
237	0x3de29c86	0.11065011
238	0xbdd37a6c	-0.103260845
239	0x3c0f31f2	0.008739935
240	0x3e087be6	0.13328514
241	0xbdd3e36f	-0.10346114
242	0x3e100960	0.14066076
243	0x3c8d3c1e	0.01724058
244	0xbdfe23a6	-0.12409143
245	0xbbbb026f	-0.005707077
246	0x3bc54b83	0.0060209646
247	0x3dac375b	0.08408996
248	0xbd18cadc	-0.037302837
249	0xbdaacf26	-0.08340292
250	0x3abe4ecf	0.0014519336
251	0x3ce1ad4f	0.02754846
252	0xbbe9d3b9	-0.007135835
253	0x3c69d559	0.014272057
254	0x3c559384	0.013035659
255	0xbcce22aa	-0.025163013

bias f4 [16]
0	0xbec911f2	-0.39271504
1	0xbeaebea5	-0.34129825
2	0xbda7bb48	-0.08190018
3	0xbd93efb7	-0.07223456
4	0x3e11ce8b	0.14238946
5	0x3efb335c	0.49062622
6	0xbe22dc60	-0.15904379
7	0x3d10d13a	0.035355784
8	0xbd91571c	-0.07096693
9	0xbe150ae6	-0.14554939
10	0x3dad5a1b	0.08464452
11	0x3ca8ce2e	0.020606127
12	0x3c0e8558	0.008698784
13	0x3e234cd6	0.1594728
14	0xbe3906ee	-0.1806905
15	0xbced73f5	-0.028985957

weight f4 [32, 16, 5, 5]
0	0x3c98254c	0.018572472
1	0xbcdb318d	-0.026757026
2	0xbcd245a8	-0.02566798
3	0x3b623dcd	0.00345217
4	0x3d604a23	0.054758202
5	0x3c611c3b	0.013739641
6	0x3c92b83e	0.01791012
7	0xbd27586b	-0.040855806
8	0x3d218390	0.03943211
9	0x3cfab5e3	0.030604308
10	0x3d112394	0.03543432
11	0xbcc6cc59	-0.024267362
12	0xbc818054	-0.015808262
13	0xbc622db5	-0.013804843
14	0xbccc0c1e	-0.024908122
15	0x3ca44245	0.020051131
16	0x3c8b3d24	0.016996928
17	0x3d4cbb65	0.0499834
18	0x3c6c8982	0.014437081
19	0x3d161ffd	0.0366516
20	0x3d144399	0.03619728
21	0xbcefc403	-0.02926827
22	0x3cd185b1	0.025576444
23	0x3cc861ec	0.024460755
24	0x3d09c081	0.03363085
25	0x3c333e6e	0.010940177
26	0xbcaf135b	-0.021371534
27	0xbcdf70e9	-0.02727552
28	0x3d558aa2	0.052134164
29	0x3ceeb926	0.02914102
30	0xbc63a5ba	-0.013894493
31	0xbd2594f5	-0.04042526
32	0x3d891679	0.066937394
33	0x3ce82e3a	0.028342355
34	0x3db5d699	0.08878822
35	0x3ce2aa80	0.027669191
36	0xbd06bed1	-0.03289682
37	0x3d50c566	0.050969504
38	0x3d648b64	0.055796996
39	0x3d0fbd80	0.03509283
40	0x3d19e9a9	0.03757635
41	0x3c88c088	0.016693369
42	0x3ce57aed	0.028012717
43	0x3b7d08e0	0.0038610026
44	0xbad5f7a1	-0.001632441
45	0x3d32778a	0.043571033
46	0x3d460693	0.048346113
47	0xbd0d9ffc	-0.0345764
48	0xbd052797	-0.03250846
49	0x3d7af6c5	0.061270494
50	0x3cb6037d	0.02221846
51	0xbc9dc9b2	-0.019261215
52	0xbb9c3f66	-0.0047683
53	0xbc7b73d4	-0.01534744
54	0xbc69b650	-0.014264658
55	0x3c686656	0.014184555
56	0xbd2b8625	-0.041875977
57	0x3cc202df	0.02368301
58	0x3c4fba03	0.012678626
59	0x3d35807e	0.044311993
60	0xbd1f8671	-0.038946573
61	0xbc544a8e	-0.012957228
62	0xbcc4b66a	-0.024012763
63	0xba5338fe	-0.0008057504
64	0xbc9bb77d	-0.019008392
65	0x3d557fc3	0.052123796
66	0xbc66125b	-0.014042462
67	0x3d0873b5	0.03331347
68	0xbcdd8e6d	-0.027045453
69	0xbac2dc83	-0.0014866743
70	0x3d2b0da4	0.041761056
71	0xbd197070	-0.037460744
72	0xbaa25d31	-0.0012387392
73	0xbcdb0c57	-0.026739283
74	0x3d4f736b	0.05064718
75	0xbc8229f1	-0.01588914
76	0xbd3b72e8	-0.04576388
77	0x3ccd6a32	0.025075052
78	0x3d0e3b7b	0.034724694
79	0xbc8a27c9	-0.016864674
80	0x3c814518	0.015780017
81	0xbd2d90ee	-0.042374544
82	0x3c0541fa	0.008133406
83	0x3d539a7c	0.051661
84	0x3d3459d0	0.044030964
85	0xbd33cc9c	-0.043896303
86	0x3d219046	0.03944423
87	0x3d29674e	0.041358285
88	0x3c6bbfdb	0.014389004
89	0xbcb974db	-0.022638729
90	0x3d0b2c0f	0.033977564
91	0x3c84e66a	0.016223151
92	0x3d5db1aa	0.05412451
93	0xbd6a59eb	-0.05721466
94	0xbd757c89	-0.05993322
95	0x3d514250	0.05108863
96	0xbbb19868	-0.0054197796
97	0xbb9dc702	-0.0048149833
98	0xbb54d4b8	-0.0032475423
99	0xbd1cb852	-0.03826172
100	0x3d6a2f21	0.057173852
101	0x3c4a0106	0.012329346
102	0xbd0c8420	-0.03430569
103	0xbaef3964	-0.0018251357
104	0xbb607d65	-0.0034254428
105	0x3ca55549	0.020182269
106	0x3d081ae9	0.03322879
107	0xbd45c847	-0.048286702
108	0x3d132e79	0.03593299
109	0x3bee55b8	0.007273402
110	0x3d6b49fa	0.057443596
111	0x3c3fa6f3	0.011697519
112	0xbd0b5df8	-0.034025162
113	0x3d09a916	0.03360852
114	0x3d4c9ec7	0.04995611
115	0x3d837659	0.064190574
116	0xbd092650	-0.033483803
117	0x3c0587e0	0.008150071
118	0x3c9328d3	0.017963802
119	0xbc89c71b	-0.016818574
120	0x3d5bed91	0.053693358
121	0x3a957feb	0.001140592
122	0x3cc02e0c	0.023459457
123	0x3c590ac7	0.013247198
124	0x3c545348	0.012959309
125	0x3bd3cd10	0.0064636543
126	0x3d155848	0.036461145
127	0xbd58a246	-0.05288913
128	0x3bb1814a	0.005417024
129	0x3cd94dfa	0.02652644
130	0xbd16b635	-0.03679486
131	0xbd713f6a	-0.058898367
132	0xbc5a92da	-0.013340676
133	0xbc31082d	-0.010805172
134	0xbd19d1de	-0.03755366
135	0xbc8a43ac	-0.016877972
136	0xbd9dcda9	-0.07705242
137	0xbd6e463a	-0.058172442
138	0xbd1845f6	-0.037176095
139	0x3c9a9853	0.018871462
140	0xbd823d2c	-0.06359324
141	0xbd863445	-0.06552938
142	0xbcc516f8	-0.024058804
143	0x3afd7892	0.0019338301
144	0x3d6565b8	0.05600521
145	0xbd7603cb	-0.06006221
146	0xbd740416	-0.05957421
147	0xbcef9a84	-0.029248483
148	0x3ce92185	0.028458366
149	0x3d17c9ea	0.037057795
150	0xbd01a7f5	-0.031654317
151	0xbcd90477	-0.026491387
152	0xbcdb75bd	-0.02678954
153	0xb7b81306	-2.1943368e-05
154	0xbd2c2164	-0.04202403
155	0x3d75492c	0.059884235
156	0xbcc8df57	-0.02452056
157	0xbc21041d	-0.009827641
158	0xbd1be691	-0.038061682
159	0x3d2d4ec9	0.042311464
160	0x3cd9478b	0.026523372
161	0x3b4e120b	0.003144386
162	0x3cfae6d9	0.030627655
163	0x378ec3f6	1.701897e-05
164	0xbd058fb0	-0.032607734
165	0x3d353492	0.044239588
166	0xbbf4676b	-0.0074586174
167	0xbd522e06	-0.051313423
168	0x3c52a6e1	0.01285717
169	0x3d140118	0.036133856
170	0x3d8e4be5	0.069480695
171	0x3d53d765	0.051719088
172	0xbd12562e	-0.03572672
173	0xbc99abeb	-0.018758735
174	0xbcb30c5c	-0.02185648
175	0xbd0d6168	-0.034516722
176	0x3d15d807	0.036582973
177	0xbbf06239	-0.007335928
178	0x3d2b1323	0.041766297
179	0xbc717acd	-0.014738751
180	0xbd529b9c	-0.051417932
181	0x3ba80fd1	0.0051288386
182	0x3b3db313	0.0028945848
183	0x3b621bc2	0.0034501408
184	0x3c95f31d	0.018304402
185	0xbd6767fa	-0.056495644
186	0xbcdf152f	-0.02723178
187	0x3d7eb92d	0.062188316
188	0xbb3a1901	-0.002839625
189	0x3ca838b2	0.020534847
190	0x3a03ca4d	0.00050273986
191	0x3d4e4361	0.050357226
192	0x3d925251	0.07144607
193	0xbb816f29	-0.003950019
194	0x3ccaf0fd	0.024773115
195	0x3ccc7040	0.024955869
196	0xbc93e35b	-0.018052747
197	0x3d96e243	0.07367375
198	0x3c08e47b	0.008355255
199	0xbd1c076c	-0.038093016
200	0x3cd668d0	0.026173025
201	0x3c583727	0.013196743
202	0xba453298	-0.00075224927
203	0xbd4e3f12	-0.050353117
204	0xbd0cd73c	-0.03438495
205	0xbb559bd8	-0.003259411
206	0x3d5791ee	0.052629404
207	0xbc9d8561	-0.01922864
208	0x3cb4158d	0.021982932
209	0x3ca9e0ec	0.020737134
210	0x3d22f8c6	0.03978803
211	0xbd127be6	-0.03576269
212	0x3d47bfb6	0.048766814
213	0xbd335093	-0.043778013
214	0xbd26fb3a	-0.040766932
215	0xbcf71dda	-0.030165602
216	0x3d55aff7	0.052169766
217	0x3ceaffe4	0.028686471
218	0x3ca8757d	0.020563835
219	0xbc98de24	-0.018660612
220	0x3d635df4	0.055509523
221	0xbd0b299f	-0.03397524
222	0x3d8bdbc5	0.06829027
223	0x3d1531bf	0.036424395
224	0xbd361fd6	-0.044463955
225	0x3d3b8dd5	0.04578956
226	0xbc253ab4	-0.010084797
227	0x3d029811	0.031883303
228	0xbd122262	-0.03567732
229	0x3cca7538	0.024714097
230	0x3d8b7ecd	0.06811295
231	0xbcf5d335	-0.030007938
232	0xbd2813cd	-0.04103451
233	0xbd0854e7	-0.033284094
234	0x3bb34846	0.005471262
235	0x3d24b220	0.040208936
236	0x3d23d1bd	0.039994944
237	0x3ca56a31	0.020192238
238	0xbd3c0cc3	-0.045910608
239	0xbab7cca1	-0.0014022776
240	0x3c252874	0.010080446
241	0x3be5f361	0.0070175384
242	0x3c5bed14	0.013423223
243	0xbd56b9af	-0.052423175
244	0xbc851336	-0.016244512
245	0x3d58a6c3	0.05289341
246	0x3ceff72e	0.02929267
247	0xbd36b184	-0.044602886
248	0xbb3ed5c0	-0.0029119104
249	0xbcd66254	-0.026169933
250	0x3cccbb89	0.024991767
251	0xbd1c0e70	-0.038099706
252	0x3ca865d4	0.020556368
253	0xbd06df94	-0.032928064
254	0x3d206be8	0.039165407
255	0xbd0a1d90	-0.0337196

bias f4 [32]
0	0xbd018597	-0.03162154
1	0xbd1ecfd1	-0.038772408
2	0xbcd3c224	-0.02584941
3	0xbd3d7482	-0.04625369
4	0x3b3f5915	0.0029197384
5	0xbd153768	-0.036429793
6	0xbd983251	-0.07431472
7	0xbb7f24a6	-0.0038931756
8	0x3ba5f754	0.005064884
9	0xbd9dc0ec	-0.077028126
10	0xbc397881	-0.011320234
11	0x3d429236	0.04750272
12	0xbd1fe315	-0.03903492
13	0x3cd96a51	0.026539953
14	0xbda0b362	-0.078467146
15	0x3c297042	0.010341706
16	0xbd26164d	-0.04054861
17	0x3d237135	0.039902885
18	0xbd2818b0	-0.04103917
19	0xbd035853	-0.032066654
20	0x3d995504	0.074869186
21	0xba1e8281	-0.0006046668
22	0x3bc883fe	0.0061192503
23	0xbc31a770	-0.010843143
24	0xbd7ef186	-0.062242053
25	0x3cd72b5c	0.026265793
26	0xbd07dcb4	-0.033169463
27	0x3b0e8f29	0.002175281
28	0xbd8c6e98	-0.068570316
29	0xbd3aa97f	-0.0455718
30	0xbd309552	-0.043111153
31	0xbbef5b93	-0.0073046177

weight f4 [120, 800]
0	0x3d18af00	0.037276268
1	0x3cebdc9c	0.028791718
2	0xbca306c7	-0.019900693
3	0x3cbb3ff0	0.022857636
4	0x3d084018	0.03326425
5	0x3ce2c3b6	0.027681213
6	0x3cfbba3e	0.030728456
7	0x3c94c900	0.01816225
8	0x3cf2c8b9	0.029636728
9	0xbca92131	-0.02064571
10	0xbcee6823	-0.02910239
11	0x3c543bbf	0.012953698
12	0xbb41c35c	-0.0029565906
13	0xbb6f9d42	-0.0036562239
14	0x3afd8e78	0.0019344827
15	0x3c97a0bc	0.018509261
16	0x397e0956	0.00024226806
17	0x3d0f0fb3	0.03492708
18	0x3c83f9a0	0.016110241
19	0xbcbefe3d	-0.02331459
20	0xbc75614d	-0.014976812
21	0xbcb4934d	-0.022042895
22	0x3c5e7c37	0.01357942
23	0xbd04726a	-0.032335676
24	0x3b3e96de	0.0029081623
25	0x3ccf088e	0.025272634
26	0x3d17a7bb	0.037025195
27	0xbbc61fe5	-0.0060462826
28	0x3d197505	0.037465114
29	0x3cea5479	0.028604733
30	0x3922dc54	0.00015531603
31	0x3ca622b6	0.020280223
32	0x3c06eab9	0.008234673
33	0x3c994e64	0.018714137
34	0xbcbfd060	-0.02341479
35	0x3c54ae4f	0.0129810115
36	0x3cb3644c	0.021898411
37	0xbcb12732	-0.021625135
38	0x3c49f757	0.012327037
39	0xbc2d7872	-0.010587798
40	0xbc9ab812	-0.0188866
41	0x3d199aab	0.03750102
42	0x3b20b92e	0.0024524438
43	0x3cdee9c7	0.027211083
44	0x3cf788c0	0.030216575
45	0x3d0369ba	0.03208325
46	0x3bb2b552	0.005453744
47	0x3c6407fe	0.013917921
48	0xbadb50e8	-0.0016732486
49	0x3b81ff0c	0.0039671715
50	0x3c43f975	0.011961331
51	0x3c635316	0.01387479
52	0xbc6466fa	-0.013940567
53	0x3d20008e	0.03906303
54	0x3c84d0a9	0.016212778
55	0xbc9fd091	-0.019508632
56	0xbc693850	-0.014234617
57	0xbc3f1f56	-0.011665186
58	0x3c03bf4d	0.008041215
59	0xbc7908b6	-0.015199831
60	0xbcacaebc	-0.021079414
61	0xbca12922	-0.019672934
62	0x3d3054b5	0.043049533
63	0xbc75d93d	-0.015005407
64	0x3c74133f	0.014897167
65	0xbc952abc	-0.018208854
66	0xbc39861a	-0.011323476
67	0x3ce3070a	0.027713317
68	0xba86bf8a	-0.0010280472
69	0x3ceead6e	0.029135432
70	0xbc2b97a8	-0.010473169
71	0x3c46ae75	0.012126555
72	0x3d30f7be	0.043205015
73	0x3d35b1c1	0.044358972
74	0x3ce93a26	0.02847011
75	0xbcc26278	-0.023728594
76	0xbcc8bbb0	-0.024503559
77	0x3d070024	0.03295912
78	0xbc53106f	-0.012882336
79	0xbccaee2b	-0.02477177
80	0xbcb1b72a	-0.021693785
81	0x3bacc05d	0.005271955
82	0x3ba19956	0.004931609
83	0x3ca47ab7	0.020078046
84	0x3d012d83	0.031537544
85	0xbbe416d7	-0.0069607305
86	0x3ca6d66a	0.020365912
87	0x3d3347c0	0.043769598
88	0xbbd9146f	-0.0066247503
89	0x3c53c5dc	0.012925591
90	0xbd0e0cc2	-0.034680136
91	0xbbe285c8	-0.0069129206
92	0xbbcd2155	-0.006260077
93	0x3cb3f7c7	0.021968735
94	0x3c4d584c	0.012533259
95	0xbc532bb0	-0.012888834
96	0xbcb93f96	-0.022613328
97	0x3c927181	0.017876389
98	0x3cbabd14	0.022795238
99	0x3cf8e49e	0.03038245
100	0x3d23014d	0.039796162
101	0x3bdff32a	0.0068344073
102	0x3ccf2191	0.02528456
103	0x3d397d5c	0.045285568
104	0xbb13fa4e	-0.0022579613
105	0x3c386e37	0.011256746
106	0x3cc254a4	0.023722
107	0x3d006f6a	0.031356253
108	0xbcd41c49	-0.025892394
109	0x3d03ab04	0.032145515
110	0xbcd32941	-0.025776507
111	0xbb856369	-0.0040706885
112	0x3cfaae46	0.030600678
113	0x3ce088c1	0.02740896
114	0x3c9f191a	0.019421149
115	0xbb02cd29	-0.001995871
116	0xbc919b5a	-0.017774273
117	0xbcb656b1	-0.022258135
118	0xbc47f2ff	-0.012203931
119	0xbbc9fe32	-0.0061643356
120	0x3a147343	0.0005662927
121	0xbcb2b2a4	-0.021813698
122	0xbae3daee	-0.0017383972
123	0xbc1dc38d	-0.0096291425
124	0x37f556b0	2.9246643e-05
125	0x3ce7440c	0.02823069
126	0x3b837eca	0.004012917
127	0xbc72d014	-0.0148201175
128	0x3c1a00da	0.009399617
129	0x3cf47533	0.029841041
130	0x3d10f92d	0.035393883
131	0x3a631d39	0.00086637173
132	0x3caf9188	0.0214317
133	0xbcbb40da	-0.022858072
134	0xbca53da7	-0.020171
135	0x3d2603a5	0.04053082
136	0xbc0a4ed4	-0.008441646
137	0x3cf4536b	0.029824933
138	0x3d1611e6	0.036638163
139	0xbd106965	-0.035256762
140	0x3cf71c6d	0.030164922
141	0x3be8eee5	0.0071085566
142	0x3c964bef	0.018346755
143	0x3bba0a19	0.0056774733
144	0xbce96171	-0.028488846
145	0xbcad9754	-0.021190323
146	0x3c85025c	0.016236477
147	0xbc67bb5c	-0.014143791
148	0x3cf6cb33	0.03012619
149	0x3c3582bb	0.011078532
150	0x3ccbb80d	0.024868036
151	0x3c9e6054	0.019333042
152	0xbcd55603	-0.02604199
153	0xbc3160dd	-0.010826317
154	0x3c25af2b	0.010112564
155	0xbcabcd7b	-0.020972004
156	0x3c6214a3	0.0137988655
157	0x3d0b3db0	0.033994377
158	0x3ca5a509	0.020220296
159	0x3c0e44f0	0.008683428
160	0xbd47875e	-0.04871308
161	0xbbbec9d2	-0.0058223987
162	0x3cd75771	0.026286812
163	0xbd051878	-0.03249404
164	0xbc0b36af	-0.008496924
165	0x3c577784	0.013151053
166	0xbd196a8e	-0.037455134
167	0xbc00ceda	-0.007861817
168	0xbcae09ef	-0.021244971
169	0xbb253a9c	-0.0025211936
170	0x3ba3e1e9	0.005001296
171	0x3a51208c	0.0007977567
172	0xbcd72157	-0.026261015
173	0xbbe67e8d	-0.007034129
174	0xbc336404	-0.010949139
175	0xbce6aeb4	-0.028159477
176	0xbb065da4	-0.0020502592
177	0x3c59e8ff	0.0133001795
178	0xbcaab415	-0.020837823
179	0x3bbe455f	0.0058066095
180	0xbb30703f	-0.0026922373
181	0x3ccf8225	0.025330612
182	0x3cc35eab	0.023848852
183	0x3b03ef11	0.0020131508
184	0x3d09e451	0.033665005
185	0xbcc0d41b	-0.02353864
186	0xbcbfdbcd	-0.023420239
187	0x3b442447	0.002992885
188	0xbc4ba916	-0.01243045
189	0xbcc602ff	-0.02417135
190	0x3c7c8528	0.015412606
191	0xb985d411	-0.0002552574
192	0xbd141956	-0.036156975
193	0x3cbaeef1	0.022819014
194	0xbcd398a5	-0.025829623
195	0xbcfaae9e	-0.030600842
196	0x3c6a6612	0.014306562
197	0xbd2bf91c	-0.041985616
198	0xbc825922	-0.015911642
199	0xbcbc24bb	-0.022966733
200	0x3cf6dbe2	0.030134145
201	0x3be0c20e	0.0068590706
202	0xbd0820f8	-0.033234566
203	0x3c021903	0.007940534
204	0xbc7e0002	-0.015502932
205	0x3cf8f169	0.03038855
206	0xbbf2e485	-0.0074124956
207	0xb94cdedb	-0.00019537976
208	0xbd0c38f4	-0.034234002
209	0x3a74e1fe	0.0009341537
210	0xbbfb033c	-0.0076602977
211	0x3bce5e3e	0.0062978556
212	0xbd21bbe0	-0.039485812
213	0xbd19e75e	-0.037574165
214	0x3c865725	0.016398976
215	0xbc493eee	-0.01228307
216	0x3cf8d6b5	0.030375818
217	0xbd2065be	-0.03915953
218	0xbcc6f18e	-0.024285104
219	0xbcabd299	-0.020974444
220	0x3c47007d	0.0121461125
221	0xbc8affe7	-0.016967727
222	0x39be0d6b	0.0003624962
223	0x3ca17c08	0.019712463
224	0x3ca60768	0.020267203
225	0x3989e606	0.00026302057
226	0xbcb3db5e	-0.021955188
227	0x3d18773f	0.037223097
228	0x3d0fc0a4	0.035095826
229	0xbb77dba1	-0.0037820118
230	0x3bf8a357	0.007587831
231	0x3cf715df	0.030161796
232	0xbc0d2f47	-0.008617229
233	0x3cfeedf9	0.031119334
234	0x3d0f0ec4	0.03492619
235	0x3c8a204f	0.016861109
236	0xbce7e165	-0.028305719
237	0xbcb58a4b	-0.02216067
238	0xbcb1a1ad	-0.021683538
239	0x3c43e148	0.011955567
240	0xbc018056	-0.007904133
241	0x3c86a6ee	0.01643702
242	0x3d035840	0.032066584
243	0x3d21b12f	0.039475616
244	0x3d27470e	0.040839247
245	0x3c9342e8	0.01797624
246	0x3cc49f50	0.024001747
247	0x3c0113e7	0.00787828
248	0x3d5244a5	0.051334996
249	0x3cda9bb0	0.026685566
250	0x3d57a72f	0.052649673
251	0x3c1afd5a	0.009459818
252	0x3ccd987b	0.025097122
253	0x3cdc2487	0.026872886
254	0x3c86340d	0.016382242
255	0x3d08c06b	0.03338663

bias f4 [120]
0	0xbab00798	-0.0013429997
1	0x3d0bd479	0.034138177
2	0xbd07b619	-0.033132646
3	0xbd2b9565	-0.04189052
4	0x3d011de0	0.03152263
5	0x3bdf9316	0.006822954
6	0x3c277467	0.010220624
7	0xbcddd331	-0.027078243
8	0xbcaa7e05	-0.020812044
9	0xbbec238b	-0.0072063855
10	0x3b0d1c5c	0.0021531796
11	0x3d392f02	0.045210846
12	0xbcd73cd8	-0.02627413
13	0xbbc69591	-0.00606031
14	0x3caa45c4	0.02078522
15	0xba70166b	-0.0009158614
16	0x3b51c693	0.0032009229
17	0xbc111f70	-0.008857593
18	0x399e2477	0.00030163277
19	0xbcec8e61	-0.028876485
20	0x3b3de2e4	0.0028974349
21	0x3c041792	0.00806226
22	0xbcb34a85	-0.02188612
23	0xbc22e6de	-0.009942738
24	0x3ce36454	0.027757801
25	0x3d10b71e	0.035330884
26	0xbd01a418	-0.031650633
27	0x3bdb95ca	0.006701206
28	0x3d42f105	0.047593135
29	0x3c2f645b	0.010705079
30	0xbc9af327	-0.018914772
31	0x3c713f2f	0.014724537
32	0xbcd89f90	-0.026443273
33	0xbce9e985	-0.028553734
34	0x3c3038ba	0.010755712
35	0xbd09efa4	-0.033675805
36	0x3c8f3e30	0.017485708
37	0x3cb69d37	0.022291763
38	0xbcb2a17f	-0.021805523
39	0x3bd72bcd	0.0065665008
40	0x3ccaf037	0.024772746
41	0xbcec7c13	-0.028867757
42	0xbc710f96	-0.014713189
43	0x3bae8ae0	0.005326614
44	0xbd33d16b	-0.04390089
45	0xbd078fc5	-0.033096094
46	0x3b4dfcb2	0.0031431136
47	0x3cfbcea9	0.030738192
48	0x3a2be044	0.00065565505
49	0xbcc7e9b2	-0.024403427
50	0x3d053f66	0.032531165
51	0xbc520237	-0.012817911
52	0x3ce69545	0.02814735
53	0xbd37ed07	-0.04490378
54	0xbba173e0	-0.0049271435
55	0xbd1d4123	-0.038392197
56	0xbd0af9a3	-0.03392948
57	0x3d357537	0.044301238
58	0x3cb652af	0.022256223
59	0xbcf56c55	-0.029958883
60	0xbcc2f789	-0.023799675
61	0x3d283b04	0.041071907
62	0x3d249d2a	0.040188946
63	0x3c38fab3	0.01129024
64	0x3c4318bb	0.011907752
65	0xbb0e585b	-0.0021720144
66	0xbcb2622d	-0.02177533
67	0xbaef4e83	-0.0018257651
68	0xbd13e539	-0.036107276
69	0x3c02cb32	0.007983016
70	0x3cc9e45a	0.02464502
71	0xbca702ae	-0.02038702
72	0xbc90db89	-0.017682808
73	0x3d2bd9fb	0.04195593
74	0x3ce198c0	0.027538657
75	0xbca25a8d	-0.019818569
76	0xbb033296	-0.0020019165
77	0xbd582bc1	-0.052776102
78	0x3c0359cd	0.008017016
79	0xbc88909a	-0.016670514
80	0x3d10fc1c	0.03539668
81	0x3cd3c6a4	0.025851555
82	0xbbc0579b	-0.0058698184
83	0xbd515489	-0.05110601
84	0xbb6d36b5	-0.0036195938
85	0xbb93f818	-0.004515659
86	0x387051e0	5.729671e-05
87	0xbcbe681f	-0.023243008
88	0xbc8c7299	-0.017144488
89	0xbb3ddd6c	-0.002897109
90	0xbd08e74e	-0.033423714
91	0xbc4e8795	-0.012605567
92	0xbc3028ba	-0.0107518975
93	0xbcfa5643	-0.03055871
94	0xbc58ef34	-0.013240624
95	0x3d21f8a6	0.03954377
96	0x3cde1145	0.027107844
97	0xbbc3336b	-0.0059570572
98	0x3cb87277	0.022515519
99	0x3d1f8d64	0.0389532
100	0xbc864440	-0.016389966
101	0x3c466b9c	0.012110617
102	0x3cfa24a6	0.030535053
103	0x3d2169e1	0.039407615
104	0xbbefea0e	-0.0073216027
105	0xbcb8c609	-0.022555368
106	0xba3c910d	-0.0007193245
107	0xbc0a70c6	-0.008449739
108	0x3d03f334	0.03221436
109	0x3bc0e0a7	0.0058861556
110	0x3ccb7158	0.02483432
111	0xbcd2ed0c	-0.025747798
112	0x3cef0a20	0.029179633
113	0xbb506c62	-0.0031802882
114	0x3c729955	0.014807065
115	0x3c7fcf95	0.015613456
116	0x3c89d9d0	0.016827494
117	0x3cf1e5fb	0.029528609
118	0x3d0ad4c3	0.03389431
119	0xbce56a4a	-0.028004784

weight f4 [84, 120]
0	0x3dd02848	0.10163933
1	0x3cec2d62	0.028830234
2	0x3c46c2dd	0.01213142
3	0x3d85ae70	0.06527412
4	0xbdcd090b	-0.100114904
5	0x3ca6d300	0.020364285
6	0x3d145d5b	0.036221843
7	0x3cc47db0	0.023985714
8	0x3df7f231	0.12106741
9	0xbdbaed8d	-0.091273405
10	0x3d672a9c	0.05643712
11	0x3d63f78a	0.055655994
12	0x3ddadeca	0.10687025
13	0x3d4343b4	0.04767199
14	0xbc16ff9a	-0.009216214
15	0xbce7ec7e	-0.02831101
16	0x3d985f10	0.07440007
17	0x3dd7cdb2	0.1053728
18	0xbd41cd39	-0.047314856
19	0x3d9414a9	0.07230503
20	0x3d0629bb	0.03275464
21	0x3da2b325	0.07944325
22	0x3dbc65ec	0.091991276
23	0x3cf28022	0.029602114
24	0x3d4d7855	0.050163586
25	0xbc8d3e34	-0.017241575
26	0xbcf07a61	-0.02935523
27	0xbda4bac3	-0.080434345
28	0x3d6a388e	0.05718284
29	0x3d2dfe00	0.04247856
30	0xbd5f3130	-0.05449027
31	0xbbe7eb09	-0.007077579
32	0x3d9671b3	0.07345905
33	0x3d965156	0.07339732
34	0x3da506f4	0.08057967
35	0x3d59bef7	0.053160634
36	0x3c11c7b1	0.008897708
37	0x3ce92efe	0.02846479
38	0xbc861ebd	-0.016372079
39	0xbd9f6393	-0.07782664
40	0xbbca8be6	-0.006181228
41	0x3b0d69eb	0.0021578025
42	0x3cde7e0e	0.027159717
43	0x3b2b97a6	0.0026182919
44	0xbdbed8b8	-0.093186796
45	0xbd630c55	-0.055431683
46	0xbd1dcea3	-0.038527142
47	0xbdd9b617	-0.10630434
48	0x3cbc0897	0.022953315
49	0xbd924085	-0.071412124
50	0x3ce425e8	0.027850106
51	0x3cd75409	0.026285188
52	0xbd126b6d	-0.03574698
53	0x3d161131	0.03663749
54	0xbcd91a8d	-0.026501918
55	0xbdc45cd3	-0.09588017
56	0xbdab170f	-0.083540075
57	0x3d398ff6	0.045303307
58	0x3da4c7ef	0.08045947
59	0x3d8dab8b	0.06917485
60	0x3d459f0a	0.048247375
61	0x3d9bdcfd	0.076105095
62	0xbd6473fc	-0.055774674
63	0xbc255570	-0.010091171
64	0xbcfd8615	-0.030947724
65	0xbc544991	-0.012956993
66	0xbc485ce8	-0.012229182
67	0xbc3666cb	-0.011132906
68	0x39ce7522	0.00039378653
69	0x3d208381	0.039187912
70	0x3d3b7569	0.045766268
71	0xbd5084ee	-0.05090802
72	0xbd12c1a9	-0.03582922
73	0x3d7ed219	0.062212083
74	0xbd8303d2	-0.06397213
75	0xbd3638c0	-0.044487715
76	0xbd757a7e	-0.05993127
77	0x3d4fe576	0.05075594
78	0xbb218269	-0.002464438
79	0x3de002a5	0.109380044
80	0xbd73d1f4	-0.0595264
81	0xbd8ffa2e	-0.0703014
82	0xbda73a2d	-0.08165393
83	0x3cbc5d5d	0.022993738
84	0x3db4a725	0.08820943
85	0x3d46451b	0.048405748
86	0x3cadcc5c	0.02121561
87	0x3d03e3c3	0.032199632
88	0x3d064b72	0.032786794
89	0xbd9af803	-0.07566836
90	0x3d806353	0.062689446
91	0xbd3aa166	-0.045564078
92	0x3d9c9d09	0.076471396
93	0x3d1e383a	0.03862784
94	0xbd806248	-0.06268746
95	0xbd4454c0	-0.047932386
96	0xbd905729	-0.070478745
97	0xbdafb9c0	-0.08580351
98	0xbd25458d	-0.040349532
99	0xbd703474	-0.058643773
100	0x3d947655	0.072491325
101	0x3cf1d12a	0.029518683
102	0x3d130cc1	0.035900835
103	0x3bcd9ed8	0.006275039
104	0x3c66f1b9	0.014095717
105	0x3c0ec78f	0.008714571
106	0x3dba364d	0.09092388
107	0xbc491230	-0.012272403
108	0x3d7b142b	0.06129853
109	0x3ced718e	0.028984811
110	0x3d36392b	0.044488113
111	0x3c9de94c	0.019276284
112	0x3d0ea05f	0.03482091
113	0x3d8284df	0.063729994
114	0x3daa1ff6	0.08306877
115	0xbc8743d9	-0.016511844
116	0x3cd73d5e	0.02627438
117	0x3dce5f7e	0.100768074
118	0xbdaec028	-0.08532745
119	0xbd9042ed	-0.07044015
120	0xbd3924d6	-0.045201145
121	0x3c560499	0.01306262
122	0x3daedb54	0.08537927
123	0x3cd403ac	0.025880657
124	0xbd0f97ea	-0.035056986
125	0xbd91c504	-0.07117656
126	0xbd9bd2e8	-0.076085865
127	0xbd58a06c	-0.052887365
128	0x3d4c0024	0.04980482
129	0x3d655a0d	0.055994082
130	0x3d27c523	0.04095949
131	0xbca878c1	-0.020565392
132	0x3dec5ac6	0.11540751
133	0x3da34b32	0.07973327
134	0x3d05f82a	0.03270737
135	0x3bf11851	0.007357635
136	0xbd426e8e	-0.047468714
137	0x3cb70c88	0.022344843
138	0xbd0128b4	-0.03153296
139	0x3d4693af	0.048480686
140	0x3dadf95b	0.084948264
141	0x3da9c222	0.08288981
142	0xbd510b1a	-0.051035978
143	0x3d8c913b	0.06863638
144	0x3dc6cd22	0.09707095
145	0x3d58db8f	0.052943762
146	0xbd638ed5	-0.055556137
147	0xbcd87447	-0.026422633
148	0x3dd6541b	0.104652606
149	0xbd58f4ec	-0.05296795
150	0xbda09660	-0.07841182
151	0x3c8f2ee9	0.017478423
152	0xbcdd831c	-0.027040057
153	0xbb97bf53	-0.004630962
154	0xbc789dd2	-0.015174346
155	0x3d9c8b84	0.07643798
156	0xbd504a57	-0.050852146
157	0x3bcb318a	0.006200974
158	0xbac30c93	-0.0014881067
159	0xbc31b08b	-0.010845314
160	0xbdcd404d	-0.1002203
161	0xbd85eacd	-0.06538925
162	0x3d468b53	0.048472714
163	0x3dd4a346	0.103827044
164	0xbcfc9f50	-0.030837685
165	0x3c9f23ca	0.019426245
166	0x3d697e1e	0.05700504
167	0xbdedfab1	-0.11620081
168	0xbcbb2fa6	-0.022849869
169	0x3c2a3c47	0.010390348
170	0x3dc8220e	0.097721204
171	0x3d0acbb5	0.033885676
172	0x3d8af7f3	0.06785574
173	0xbd9b8e61	-0.07595516
174	0x3d30fe30	0.043211162
175	0xbdca4a0c	-0.098774046
176	0xbcf37cda	-0.02972262
177	0xbd9206f5	-0.07130233
178	0xbd418794	-0.047248438
179	0xbd95aa39	-0.07307858
180	0x3c639b12	0.013891952
181	0x3d23e81f	0.04001629
182	0x3d3f1039	0.04664633
183	0x3d18f469	0.037342463
184	0x3d849d4b	0.06475314
185	0xbd6bea1e	-0.05759632
186	0x3dbaa9b0	0.091143966
187	0x3cd503a2	0.026002709
188	0x3d2e268a	0.042517222
189	0x3d250559	0.040288303
190	0x3de58879	0.11207671
191	0xbdaaf789	-0.08347995
192	0x3d8e959b	0.06962129
193	0xbdb1fbbe	-0.08690594
194	0xbd61be55	-0.055113155
195	0x3d5077b8	0.050895423
196	0x3d9e7741	0.0773759
197	0x3d307165	0.04307689
198	0x3a591083	0.00082803535
199	0xbd700a3c	-0.05860351
200	0xbd3e3a36	-0.046442233
201	0x3cbe3ea6	0.023223232
202	0x3da29ae5	0.079397
203	0x3c56a42d	0.013100666
204	0xbd3d732a	-0.046252407
205	0xbcadcb2f	-0.02121505
206	0x3c9c9dd2	0.019118223
207	0x3bad7a3f	0.005294114
208	0xbd0ac421	-0.03387845
209	0xbdb9ac6b	-0.09066089
210	0x3d65dd95	0.05611952
211	0x3d580c65	0.052746195
212	0xbca35c2d	-0.019941414
213	0x3d9dee14	0.077114254
214	0xbc80a6a0	-0.015704453
215	0x3d9b7519	0.07590694
216	0x3c8ae9d5	0.016957203
217	0xbc07b4ff	-0.008282899
218	0xbced911d	-0.02899986
219	0xbd09aa81	-0.03360987
220	0x3c4546a8	0.012040772
221	0xbdb10b8b	-0.0864478
222	0x3da10031	0.07861365
223	0x3db0df88	0.08636385
224	0x3d06e1e1	0.03293026
225	0x3df60675	0.1201295
226	0xbc8ffa05	-0.017575273
227	0xbd97940d	-0.07401285
228	0xbd2043e2	-0.039127238
229	0x3daae67d	0.083447434
230	0x3c9b6b9d	0.018972212
231	0xbcf0e95a	-0.029408146
232	0x3d4e250c	0.0503283
233	0xbc5fcf4d	-0.013660264
234	0x3da6a7f3	0.081375025
235	0xbddcc13d	-0.10779045
236	0xbc4cf557	-0.012509665
237	0x3dae2e49	0.08504922
238	0xbd61171d	-0.054953683
239	0x3d9cb7da	0.076522544
240	0x3daf5d1a	0.085626796
241	0x3d966210	0.07342923
242	0xbd8c8345	-0.06860975
243	0xbc385504	-0.011250738
244	0xbdb4de5c	-0.08831474
245	0x3d4148aa	0.04718844
246	0xbd980f7c	-0.074248284
247	0x3d49e7e5	0.049293417
248	0xbcf606a5	-0.030032465
249	0xbd46d801	-0.04854584
250	0xbd7b8354	-0.06140454
251	0x3dbdc954	0.09266916
252	0xbd58b1ab	-0.052903812
253	0x3cb89a29	0.022534447
254	0xbd64480d	-0.055732775
255	0x3d72d97f	0.05928945

bias f4 [84]
0	0x3d95a61f	0.07307076
1	0x3cccfc43	0.025022632
2	0xbcc850ae	-0.024452534
3	0xbbbce85f	-0.0057650055
4	0x3d77d0b6	0.060501777
5	0xbd875e01	-0.06609727
6	0x3dc0a579	0.094065614
7	0x3dca6671	0.098828204
8	0x3d40aa3e	0.047037356
9	0x3bf337e9	0.0074224365
10	0xbcbeb998	-0.023281857
11	0xbd9c8857	-0.07643192
12	0x3bbd5ae6	0.005778658
13	0x3d550bdd	0.052013267
14	0xbd537f36	-0.05163499
15	0x3de0d84e	0.10978757
16	0x3d009390	0.031390727
17	0x3cc74ddd	0.02432912
18	0x3d7eb1de	0.062181346
19	0xbd06aff0	-0.03288263
20	0x3dc0f04b	0.09420832
21	0xbda411e2	-0.080112234
22	0xbd8a62d6	-0.06757133
23	0xbda3f8f9	-0.08006472
24	0xbd902f4b	-0.070402704
25	0x3d9329de	0.0718572
26	0xbd963acd	-0.07335434
27	0x3d8e7a5b	0.06956931
28	0x3cc16ba3	0.023610895
29	0xbd4daff0	-0.050216615
30	0x3d2a52c9	0.041582856
31	0xbd371afa	-0.04470346
32	0xbd9d30e9	-0.076753445
33	0x3db86633	0.09003868
34	0x3d1f2e7d	0.038862694
35	0xbd5caee5	-0.05387773
36	0xbafccf9c	-0.0019287947
37	0xbd742626	-0.059606694
38	0xbd99b25c	-0.075047225
39	0x3caec911	0.02133611
40	0xbd762e68	-0.06010285
41	0x3dbc69e7	0.09199887
42	0x3c74d3a5	0.014943038
43	0x3cebbe7f	0.028777359
44	0xbc762989	-0.015024551
45	0xbbd99d4d	-0.006641066
46	0x3dd0091f	0.1015799
47	0xbcb4c915	-0.02206854
48	0xbd32a5af	-0.04361504
49	0x3dc5e488	0.096627295
50	0xbcf34299	-0.029694842
51	0x3d9139a6	0.07091074
52	0x3d8d09c8	0.06886631
53	0xbbe56fd6	-0.0070018573
54	0x3d0920fd	0.033478726
55	0xbd139a12	-0.036035605
56	0x3d445ee1	0.047942046
57	0x3d3c5fb5	0.04598971
58	0xbc811292	-0.015755925
59	0x3cd54c20	0.026037276
60	0xbd021b9d	-0.031764615
61	0xbd21fbb4	-0.039546683
62	0x3d9a1c88	0.07524973
63	0xbd6455bb	-0.05574582
64	0x3b19b3ec	0.002345319
65	0x3d1b9686	0.037985347
66	0xbd6944a5	-0.05695023
67	0xbd9caac4	-0.076497585
68	0xbc58ecfd	-0.013240096
69	0xbcda7cc4	-0.026670821
70	0xbcff218d	-0.031143928
71	0xbd953b6b	-0.07286724
72	0x3b685758	0.0035452452
73	0x3bc3bcfe	0.0059734574
74	0xbc9e7f3c	-0.01934778
75	0xbc9e1ad4	-0.019299902
76	0xbd0bbac8	-0.034113675
77	0xbd921233	-0.071323775
78	0x3d8ab996	0.06773679
79	0x3dce7167	0.100802235
80	0x3cf0d39f	0.029397784
81	0x3d46da76	0.048548184
82	0xbd75c29f	-0.06000006
83	0xbd433541	-0.04765821

weight f4 [10, 84]
0	0x3d432045	0.047638196
1	0x3cc60dae	0.024176445
2	0x3cf309de	0.029667791
3	0x3d129b8b	0.03579287
4	0xbe40196d	-0.18759699
5	0xb9c95af1	-0.00038405464
6	0xbd6d9d38	-0.058011264
7	0xbd5314a0	-0.05153334
8	0x3d2cd081	0.042191032
9	0x3df371f1	0.11886967
10	0x3caae295	0.020859996
11	0xbe3ac1bd	-0.18237968
12	0xbcb599db	-0.02216809
13	0xbde2cc1d	-0.11074088
14	0xba840a57	-0.0010073882
15	0xbbc4784a	-0.005995785
16	0x3dc45e7b	0.09588333
17	0xbdbac4cc	-0.09119567
18	0xbe625a93	-0.22104864
19	0x3d96b221	0.07358194
20	0xbdd352d6	-0.10318534
21	0xbdeb7e34	-0.11498681
22	0xbcde5795	-0.027141372
23	0xbdda8124	-0.10669163
24	0xbe029278	-0.12751186
25	0xbd331357	-0.043719616
26	0xbcf8b10e	-0.030357864
27	0xbd81ff40	-0.06347513
28	0x3ca3df6f	0.020004002
29	0xbe3a021a	-0.18164864
30	0xbd735a43	-0.059412252
31	0x3b91f55b	0.0044542975
32	0xbdbf6233	-0.09344902
33	0xbe25d116	-0.16193041
34	0x3d85fdfb	0.065425836
35	0x3da91a53	0.08256974
36	0xbdc9609a	-0.098328784
37	0x3cf8e541	0.030382754
38	0xbda2f263	-0.07956388
39	0xbd6b51d9	-0.057451103
40	0xbcee25c0	-0.029070735
41	0xbdbcde81	-0.09222127
42	0x3da70b05	0.08156399
43	0xbe0f8e61	-0.14019157
44	0xbdde88da	-0.10865946
45	0xbd4fdc63	-0.050747287
46	0x3db4407e	0.088013634
47	0xbdc9fd16	-0.098627254
48	0x3dcd41f7	0.100223474
49	0xbe33dc19	-0.1756443
50	0x3d00bfe0	0.031432986
51	0x3e219d45	0.1578265
52	0x3e20c81b	0.15701334
53	0x3e214b85	0.15751465
54	0xbd82c249	-0.06384713
55	0x3d710471	0.058842126
56	0xbd84d507	-0.06485944
57	0x3dc3885d	0.095474936
58	0xbd6b06b7	-0.05737945
59	0x3b6cab04	0.0036112675
60	0xbbb39536	-0.005480434
61	0xbd61681b	-0.055030923
62	0x3c9d3d2e	0.019194212
63	0x3e2dd0d0	0.16974187
64	0xbbc0ad68	-0.0058800466
65	0x3e4813b6	0.19538769
66	0x3d02e722	0.031958707
67	0x3cbe7321	0.023248257
68	0x3de771e0	0.11301017
69	0xbceb24e7	-0.02870412
70	0xbd852243	-0.065006755
71	0xbdcb7229	-0.09933884
72	0xbd39b74b	-0.045340817
73	0x3cd87346	0.026422154
74	0xbd76f369	-0.060290728
75	0xbd2f6679	-0.042822335
76	0xbdd79e7c	-0.10528275
77	0x3e0ad4df	0.13557766
78	0xbd749f0d	-0.059721995
79	0xbdf0bd76	-0.11754887
80	0x3dcf22c6	0.101140544
81	0x3c801d90	0.015639096
82	0x3da477b2	0.080306426
83	0xbc77441e	-0.015091924
84	0x3dd5ba1e	0.1043589
85	0xbe514081	-0.20434763
86	0xbbd5a433	-0.006519818
87	0x3dfd5be3	0.123710416
88	0x3ce1d62f	0.027567951
89	0x3db041df	0.08606314
90	0xbd063915	-0.03276928
91	0xbcc915b1	-0.024546476
92	0x3c220ca6	0.009890711
93	0x3b88332d	0.0041564913
94	0xbe0ec567	-0.1394249
95	0xbd404b21	-0.04694665
96	0x3e101c54	0.14073306
97	0xbe1759c1	-0.14780332
98	0xbdf95a4f	-0.12175428
99	0x3e03d7f9	0.12875356
100	0x3e066d18	0.13127553
101	0x3cbb435e	0.022859272
102	0xbd815bf4	-0.06316367
103	0x3d8a0972	0.06740083
104	0x3d811aed	0.06303964
105	0x3d8f4333	0.06995239
106	0x3e504fb3	0.20342903
107	0x3d881214	0.06644073
108	0x3e045172	0.12921694
109	0xbd93347c	-0.07187745
110	0x3d5e54b0	0.054279983
111	0xbe05b81f	-0.13058518
112	0xbd97a48c	-0.07404432
113	0xbe13460e	-0.14382192
114	0xbdbebd5f	-0.093134634
115	0xbdbeb805	-0.09312443
116	0x3e1b1b24	0.15147072
117	0xbdf647a8	-0.12025386
118	0x3d611c44	0.054958597
119	0xbb659040	-0.0035028607
120	0x3bd21d02	0.0064121494
121	0x3d41d414	0.047321394
122	0x3b8e5ac2	0.0043443153
123	0xbe2ef6de	-0.1708636
124	0x3d9240ba	0.07141252
125	0xbde194b6	-0.110146925
126	0xbdfd3be0	-0.12364936
127	0xbdd5fa7e	-0.10448168
128	0x3dd80f56	0.105498
129	0x3ac5befb	0.0015086824
130	0x3e0598fc	0.1304664
131	0xbda4a5a5	-0.08039407
132	0xbdf174e0	-0.1178987
133	0xbdcca165	-0.09991721
134	0x3c2b9963	0.010473582
135	0xbdc2c098	-0.095093906
136	0x3d2a1223	0.041521203
137	0xbe34ff2e	-0.17675468
138	0xbce84953	-0.028355276
139	0x3df2b0e9	0.11850149
140	0x3d3b39b5	0.04570933
141	0xbe42f286	-0.19037828
142	0x3da241c3	0.07922699
143	0xbe130c91	-0.14360262
144	0x3c16e8c9	0.009210774
145	0x3e40c4cc	0.18825072
146	0x3d3279f1	0.043573324
147	0xbe2b5786	-0.16732606
148	0xbdf88753	-0.12135186
149	0x3bfb6687	0.0076721343
150	0x3e2726a4	0.16323334
151	0x3e04bfe4	0.12963825
152	0xbd687d78	-0.05676028
153	0x3cff8a2c	0.031193815
154	0x3dcaecfc	0.099084824
155	0xbd67a20b	-0.05655102
156	0xbe2c87e6	-0.16848716
157	0xbe51cf13	-0.20489149
158	0xbe221f0c	-0.15832156
159	0x3e0fb50f	0.14033912
160	0x3dcb24ba	0.099191144
161	0x3e10d73a	0.14144602
162	0xbdd9d9f8	-0.10637277
163	0xbe207b12	-0.15671948
164	0xbe1c4bbe	-0.15263268
165	0xbe0551ed	-0.13019533
166	0xbda138b5	-0.07872144
167	0xbe18108e	-0.14850065
168	0x3d57b14a	0.05265931
169	0x3d5782fb	0.052615147
170	0xbd80a60d	-0.06281672
171	0xbbe65497	-0.007029127
172	0x3c96aabf	0.018391965
173	0x3d48dacb	0.049036782
174	0x3dfbbab5	0.12291471
175	0xbd8d3555	-0.06894938
176	0xbd19cab6	-0.037546836
177	0xbe1d69bf	-0.1537237
178	0x3dd3c76f	0.10340773
179	0xbdb78b92	-0.08962168
180	0xbd91181a	-0.07084675
181	0xbcbf3e6e	-0.023345198
182	0x3acc4835	0.0015585484
183	0x3dbbae25	0.09164075
184	0xbe1f838d	-0.15577526
185	0x3d921e5b	0.07134696
186	0x3dd7b1ac	0.10531935
187	0xbd14a499	-0.036289785
188	0x3de58ab5	0.11208097
189	0xbde43778	-0.11143392
190	0xbe0430e6	-0.12909278
191	0x3d6f7962	0.05846537
192	0x3ddf83bc	0.10913798
193	0xbce9338c	-0.028466962
194	0xbe2007eb	-0.1562802
195	0x3e0a9cac	0.13536328
196	0xbcfdbe24	-0.030974455
197	0x3d1dd827	0.038536217
198	0x3e2dd671	0.16976334
199	0xbce5d0ed	-0.028053725
200	0xbd2005c5	-0.039068002
201	0x3da82080	0.08209324
202	0xbd899cff	-0.06719398
203	0xbdb10e5e	-0.086453184
204	0x3dfa94df	0.12235426
205	0xbd068114	-0.032837942
206	0xbe2ab849	-0.16671862
207	0x3d4f22ae	0.050570183
208	0x3d0ef0b7	0.034897532
209	0x3c643339	0.013928228
210	0x3bc543c6	0.006020042
211	0xbc89a699	-0.016803073
212	0x3d97f009	0.0741883
213	0xbc6811dc	-0.014164414
214	0x3d04b06b	0.032394808
215	0x3e231630	0.15926433
216	0xbd04fd42	-0.032468088
217	0x3dcf02ad	0.10107932
218	0xbd03f3e2	-0.032215007
219	0xbdfce196	-0.123477146
220	0x3dda40ea	0.106569126
221	0x3cda076a	0.026614863
222	0xbd8d2686	-0.068921134
223	0xbdfc24f6	-0.12311737
224	0x3d09ad4a	0.033612527
225	0x3db65bfd	0.08904264
226	0xbdb216bf	-0.08695745
227	0x3dcd38c2	0.10020591
228	0x3d4bcbd3	0.04975493
229	0xbe24f829	-0.1611029
230	0xbcef54b7	-0.0292152
231	0xbd37c2c1	-0.044863466
232	0x3ccceec4	0.025016196
233	0x3d1925fa	0.037389733
234	0xbdee3288	-0.11630732
235	0xbe0f3b26	-0.13987407
236	0xbd960d58	-0.07326764
237	0x3dce673a	0.10078283
238	0x3d6d4c12	0.057933874
239	0xbc69b19e	-0.014263539
240	0xbdca5116	-0.09878747
241	0xbcb5ef6e	-0.022208896
242	0xbdff6247	-0.12469917
243	0xbe23a57e	-0.15981099
244	0x3bcc3788	0.006232206
245	0x3ce54a02	0.027989391
246	0x3dc6009d	0.09668086
247	0x3bfcece0	0.0077186674
248	0x3de52a21	0.11189676
249	0x3aff978d	0.0019500122
250	0xbcc5ccef	-0.024145572
251	0x3c0d18b7	0.0086118495
252	0x3dcf7270	0.10129249
253	0x3dedbc39	0.11608166
254	0xbd6014d6	-0.05470737
255	0xbe1cc341	-0.15308858

bias f4 [10]
0	0xbda9f32c	-0.082983345
1	0x3e0937a5	0.13400133
2	0x3d82fba1	0.06395651
3	0x3d501dde	0.050809734
4	0x3de1e578	0.11030096
5	0xbe16f184	-0.14740568
6	0x3ca29de7	0.019850684
7	0xbe0d34e8	-0.13789713
8	0xbd76e4b6	-0.06027671
9	0x3dad4d2b	0.08461984
