exp/LeNet/module_5.pth (torch, 489607 bytes, 10 tensors)

weight f4 [16, 3, 5, 5]
00000000: b14e 183d 1da8 bb3d 5a81 37bd 820e dcbd
00000010: 1421 c9bd 52ad b93d f196 073e 5a2d 05bd
00000020: 28fe 8e3c 5ecd da3d 036c 86bd 769b b0bd
00000030: bf9c a63d b66b 13bd 86ab a43d 7159 503d
00000040: 062c 04be a700 11be b497 18be 1f1f a53d
00000050: b000 8fbd 120f afbd 3c7b 3fbd cd78 71bd
00000060: f5ba d5bd 9f17 963d 1331 cbbc c51e 70bd
00000070: d487 b13c d274 7d3c 3ae3 903d 96af e83d
00000080: ced3 843d 23c6 2ebd d4d3 d3bd fdd9 e5bd
00000090: 88c1 913c 87b5 3a3c 9c2e e2bc 8cd1 f4bd
000000a0: f7be 18be f2f3 0ebd 7cf9 39bd 5342 d8bd
000000b0: b9fd 3bbe 78e3 fe3b 3869 97bd f135 7b3c
000000c0: 8c13 a93b ed73 97bd 033e 883c 0aec fa3d
000000d0: 7423 c73d 3306 3d3e 8c4b 1c3e 20db 303e
000000e0: ed71 7f3b 9ac6 283e 054e 473e e017 e43d
000000f0: c1b6 b73d 1853 f53c b3a7 a23d 3dce aa3d
00000100: fe07 213d e00e 593d 39eb 78bd d5a8 1fbd
00000110: b20c de3d 84b6 84bd 273d 1d3e 327e 493e
00000120: 2164 a93d db6e 1c3e 2e5d 223e fb0e eb3d
00000130: 4b21 0d3e b65e 9d3c fc2f 2e3e d095 bb3d
00000140: a33c 9f3d 99bf 1c3e 66aa 233d 77e5 de3d
00000150: f5d8 3a3e a150 fa3d eb79 153e df07 e53d
00000160: 68b0 8ebd d116 f9bb 0968 f0bd 9ead 4ebd
00000170: fbe3 43be 5f01 4dbe 8a9c b7bc 7fe2 d6bd
00000180: 824f 1ebe cfd2 6cbe bcdf 93bd 2e47 69be
00000190: f99f 83bd 46e9 c4bc cddb c43d 0abf bcbd
000001a0: 7df7 98bc e916 143e 143c 2a3d 30a3 1cbc
000001b0: d457 f83d dc7e db3c 38d7 423c c0fa 313d
000001c0: 618e 3b3d da68 803d c74f bcbd b028 82be
000001d0: a924 87be 788e 97be 5377 4dbe 6981 17be
000001e0: bdb7 6cbe 62e4 79be defc 07be c698 9dbe
000001f0: 85de 6fbe 84b0 0f3b 4ca1 263e b146 243e
00000200: 2620 303e fdc3 073e 2ced 0c3e 9acb 3e3e
00000210: afb8 523e 900a 813e 4eee 583e d46b 0d3e
00000220: 0fd7 423e ebd6 4d3e b8a6 4e3e 1bc4 873d
00000230: ad31 17bd 2086 00be aa8b 67bc 9ca4 583d
00000240: fec3 14bd b9d6 5e3c 64b4 94bd c321 d6bd
00000250: 8ed9 85bc fafa 773d 41bd b43d d590 edbd
00000260: ac74 86bd 4148 d13c 859b aabd abba c8bb
00000270: 673e cebd 258e 84bd 610b a23d bc22 a9bd
00000280: 9399 f13c 70a9 343c 8f2b 903d 7c4a 003e
00000290: 3e0f e63c 3596 6c3c 023b a83d 13ad bdbc
000002a0: 58e1 b53d d9d9 a1bd 9c01 cb3b ae86 bf3a
000002b0: e6b4 4cbd 48b1 d3bd 09b0 9e3d 8164 96bd
000002c0: 5e62 2dbd 1d0a 0dbb 743a 80bd 5957 0ebc
000002d0: 217d 91bc 4add 2d3d dadb 5a3d 3acd 3dbd
000002e0: 426f 953d 9b05 03ba 87ec bf3d 9148 86bd
000002f0: d772 b63d 0cab cbbd 9cb9 05bd 6a33 42bd
00000300: d1c2 edbd 7f8f 32bd f7ad 13bd 0e08 ffbd
00000310: 3028 97bd 4d7b f5bc 7df0 62bc df2e 1cbe
00000320: 704b ec3c c614 f73c 902d f13d a98f 073e
00000330: 883c 023d aaf5 1c3d 8147 b13d 2c41 273d
00000340: a583 9cbd c271 d33d 38a5 d83b 6594 793d
00000350: 82cc 1f3e 93f9 a33c 1f96 e93d 0ed4 0a3d
00000360: 9205 86bc 824e 8ebd 327d d93d f080 f33c
00000370: 88c7 a43c bc56 34bd 6b01 ebbb 54d8 803d
00000380: ebd3 87bd 972a 843d 3d72 90bd 8d4e 903d
00000390: cadd 7d3d bedd c63d a0d3 9fbc 7a5c 303d
000003a0: ed88 0e3d 8e70 2cbc bc40 593d 551c 053e
000003b0: 7b4e eb3d 1a48 e73d 8ab9 b4bd 7ef3 f13c
000003c0: c110 0d3e 7085 bfbd 0930 113e c63e f13c
000003d0: cc99 d0bd c807 60ba d96d 373c ed08 a23d
000003e0: 6887 0bbd e60d 8bbd 41f5 0b3c 86df f43c
000003f0: f9ab 13bc ee20 863c e71e ad3c 6fd4 9ebc
0.03718442 0.091629244 -0.044801094 -0.10744955 -0.09820762 0.09066261 0.13241173 -0.032513954
0.017455176 0.10683702 -0.0656357 -0.08623402 0.08135366 -0.035991393 0.08040528 0.050866548
-0.12907419 -0.14160405 -0.1490162 0.080625765 -0.06982553 -0.08547796 -0.046748385 -0.058953095
-0.1043605 0.07328724 -0.024803674 -0.058623094 0.021671213 0.015469747 0.0707459 0.11361615
0.06485711 -0.042669427 -0.103431374 -0.112232186 0.017792478 0.011395819 -0.027610116 -0.119540304
-0.14916597 -0.034900613 -0.045403942 -0.10559525 -0.18358506 0.007778581 -0.07393116 0.015332685
0.005159801 -0.07395158 0.016631132 0.12252052 0.09723559 0.18459396 0.15263194 0.1727109
0.0038977817 0.1648201 0.19463356 0.11137366 0.089704044 0.029946849 0.07942142 0.08340118
0.039314263 0.0529927 -0.0607712 -0.03897937 0.10842265 -0.064801246 0.15355359 0.19677046
0.08271051 0.15276663 0.15855858 0.11477467 0.13782232 0.0192102 0.17010492 0.09159434
0.077752374 0.15307464 0.039957426 0.10883611 0.18246825 0.1222241 0.1459729 0.11183142
-0.069672406 -0.007601597 -0.11738593 -0.050458543 -0.19129936 -0.20020054 -0.02241351 -0.104924195
-0.15460017 -0.23127292 -0.07220408 -0.22781059 -0.06426997 -0.024037015 0.09612236 -0.09216125
-0.0186727 0.14461865 0.0415612 -0.009560391 0.12126127 0.02679389 0.011892132 0.043452024
0.04579008 0.06269999 -0.09194904 -0.25421667 -0.26395157 -0.29600883 -0.2006505 -0.1479546
-0.23116966 -0.24403527 -0.13280055 -0.3078062 -0.23424728 0.002192528 0.16272467 0.16042592
0.17199764 0.13258357 0.13762349 0.18632355 0.20578264 0.2520337 0.21184656 0.13810664
0.19027351 0.20101516 0.20180786 0.06629201 -0.03691261 -0.12551165 -0.01413242 0.05289136
-0.036319725 0.013600999 -0.07260969 -0.10455658 -0.01633909 0.060542084 0.0882516 -0.1159989
-0.06565222 0.025547149 -0.08330444 -0.006125768 -0.10070496 -0.064724244 0.079123266 -0.08258578
0.029492175 0.011026725 0.07039558 0.12528414 0.02808344 0.014440109 0.0821438 -0.023153817
0.088808715 -0.07902879 0.00619526 0.0014612281 -0.049977206 -0.10336548 0.0774842 -0.07343388
-0.04233014 -0.002152092 -0.06261149 -0.0086878175 -0.017759861 0.042447366 0.053432323 -0.046338297
0.07296611 -0.00049980887 0.09371286 -0.0655681 0.08908623 -0.09944734 -0.032647714 -0.047412314
-0.11609424 -0.04359388 -0.036054578 -0.12452708 -0.07380712 -0.029966021 -0.013851282 -0.15252255
0.028844565 0.030161273 0.117762685 0.13238396 0.03179601 0.03832022 0.086562164 0.040833637
-0.07642297 0.10324432 0.0066114925 0.060932536 0.15605357 0.020016467 0.114055865 0.033893637
-0.016360078 -0.06948568 0.10619582 0.029724568 0.020114675 -0.04402803 -0.0071718 0.06291261
-0.06632217 0.06453436 -0.07053039 0.07046232 0.061979093 0.09710263 -0.01951009 0.043056943
0.03479855 -0.010524882 0.05304025 0.12999089 0.11489578 0.11293049 -0.08824451 0.029535051
0.13775922 -0.09351623 0.1417848 0.029448878 -0.101855844 -0.00085460814 0.011195623 0.07911859
-0.03406468 -0.0678976 0.00854236 0.02989174 -0.009013169 0.016373124 0.0211329 -0.019388406

bias f4 [16]
00000000: 5418 a8be 7303 a4be 7a39 92bd a33f 01bd
00000010: 9cbb ef3d eec6 ca3e 6e8f f9bd 1817 723d
00000020: 77e9 f5bc 1cf8 d3bd d45e d33d 031d a63b
00000030: 54dd bd3c ab12 d83d d767 f0bd 1511 683c
-0.3283106 -0.32033882 -0.07139869 -0.03155483 0.117057055 0.39604896 -0.1218556 0.059104055
-0.030018551 -0.103500575 0.103208214 0.0050693764 0.023176827 0.10550436 -0.11738556 0.014164229

weight f4 [32, 16, 5, 5]
00000000: cd9e c03c 06c8 b4bc 9498 bebc e79f 4b3b
00000010: 4be0 543d 3f80 943c 2733 af3c c52f 23bd
00000020: e1cc 1d3d 5716 e53c 3e17 243d eeda cfbc
00000030: c4a5 a0bc e611 65bc 323f b6bc fb83 bb3c
00000040: 0c48 6c3c b2af 3d3d 07de 713c d7b0 1c3d
00000050: 9655 1a3d a600 00bd 3754 bd3c 2c5e d83c
00000060: aeb7 0f3d dd51 413c ca6e 6bbc e804 c0bc
00000070: 8775 3e3d d5c5 723c 3bed 56bc d64a 04bd
00000080: c289 833d b744 7c3c 9ed6 a03d bd3f 073d
00000090: 3d5f 0ebd 4789 2d3d 8bf7 503d 7a4f 263d
000000a0: c755 213d ccb5 173c 7174 9c3c 7418 a7bb
000000b0: 2fd0 13bc d441 323d 8992 403d 2a78 fcbc
000000c0: c04f e7bc 2535 7c3d 45bc c33c 8255 8ebc
000000d0: 3af9 80bb 2d6e 87bc 03ea 84bc 2a4e 743c
000000e0: 33f9 29bd 7f7a bf3c 2b75 463c 51ee 343d
000000f0: 201f 1cbd 9db8 6bbc 4f54 cabc 9ec9 d7b9
00000100: f6f4 94bc c9f7 4f3d 4813 89bc 3b98 063d
00000110: 48fe e4bc 25ce 8cbb 1cfe 243d b432 20bd
00000120: bc29 d0b9 fce1 d5bc 726c 4b3d 1f37 64bc
00000130: d7ba 35bd 31bb d33c 1f40 0b3d 1658 8abc
00000140: c0ba a63c 005d 2bbd a323 963b 6d17 4d3d
00000150: e807 3e3d 5498 20bd 8ac2 113d c7e2 0d3d
00000160: f448 7d3c b3c8 93bc eec4 0c3d 235e 113c
00000170: 6923 3c3d a85e 5ebd b61e 65bd f3dd 403d
00000180: c12c 45bc 4aee 44bc b5c9 0abb e606 0abd
00000190: 064e 693d 8a84 5b3c df43 03bd 0a8f 823b
000001a0: 7fbb 633b 7217 773c f16b 073d 3153 2dbd
000001b0: 57b8 303d da8a 583c 610f 463d a35c 4d3c
000001c0: 9cdb c0bc 5b23 213d 089e 4d3d 57fd 5d3d
000001d0: 21f9 febc 6280 953c 3b62 8b3c b92c b7bc
000001e0: 59a5 393d e485 2b3b 88b3 fe3c 0ed8 2e3c
000001f0: bed7 ba3b 0468 b13b fcbb 213d 1642 45bd
00000200: 567f f83b dbc9 c63c 909b 0fbd f1f8 48bd
00000210: b82c cebb 30b4 48bc 1526 2abd 2792 28bc
00000220: 2d1c 81bd da5d 58bd 13c4 26bd f0c9 853c
00000230: e392 5dbd a7c0 57bd c82c b2bc c746 80bb
00000240: 76e0 5b3d 5cc9 4dbd 2f55 44bd 0d62 e2bc
00000250: bb31 c13c 21c2 163d 2dd5 07bd ea6c e7bc
00000260: 338a d7bc 9d89 983b 0778 0dbd 24b8 5a3d
00000270: fd31 e0bc f595 69bb 5967 00bd 899d 443d
00000280: 5ae2 783c f7b5 ce3a 8e7a 313d 217d 8d3b
00000290: 977e 04bd 5040 033d b681 03bc f649 1ebd
000002a0: 27b4 383c 8ee3 ff3c d2fd 6d3d 3195 483d
000002b0: 46ff d7bc 2326 b6bc 8252 f9bc a8c6 e3bc
000002c0: c75d 393d e7fc 69ba cd45 353d d049 6ebc
000002d0: 0ff0 15bd 8a93 893c 2e3d 833a b4a0 8ab8
000002e0: 86e2 ac3c 0d74 1bbd d83c a0bc fbe4 433d
000002f0: 7c09 0bbc 7e4d df3c 471e 473c 149e 533d
00000300: 7f83 4a3d 610e 37bc 060c 0d3d 2c94 d03c
00000310: 67a4 adbc b9c8 493d c2f8 80bb 0131 fdbc
00000320: 2b9d ea3c 7245 7d3c 7817 a238 8407 49bd
00000330: 78b1 06bd c891 253b e1de 643d c522 bbbc
00000340: 5855 b53c 0b28 c53c 9620 3a3d a186 11bd
00000350: 1882 293d 92dd 2cbd 6198 14bd 3e97 f1bc
00000360: 3bbd 4d3d 80c7 9b3c bcea ad3c 0826 68bc
00000370: a817 513d 5637 16bd d8c8 693d 8c16 033d
00000380: 9aac 27bd 026a 333d 91f8 2bbc f5bf 083d
00000390: e272 09bd c9b7 ea3c 7ab0 833d eb23 fcbc
000003a0: 4e5f 19bd 3e88 f4bc 65bc 183c af8c 163d
000003b0: 6bb3 1e3d fcf6 be3c 35fa 2cbd e276 4a3b
000003c0: 7768 ae3b 68da 823b 6608 913c d638 47bd
000003d0: adde 84bc 2b79 453d 9033 d23c 8733 25bd
000003e0: 2097 bd3a 3575 d1bc 889e b73c 3b9f 28bd
000003f0: 8374 943c d7e3 0bbd 16f7 1f3d 9dea 0fbd
0.023513222 -0.022068035 -0.023266114 0.003107065 0.051971715 0.018127559 0.021386696 -0.03984048
0.038525466 0.027964754 0.040061228 -0.025372948 -0.019610293 -0.013981318 -0.02224693 0.022890082
0.014421474 0.046310134 0.014762408 0.038254585 0.037679277 -0.03125062 0.023111446 0.026412092
0.03508728 0.011799303 -0.014369676 -0.02343984 0.0464988 0.014817675 -0.013118084 -0.03229793
0.064227596 0.015397242 0.07853435 0.03301977 -0.034758795 0.042367246 0.051017325 0.04060314
0.039388444 0.009259652 0.019098492 -0.0050993506 -0.009021803 0.04351981 0.047014747 -0.030819017
-0.02823627 0.06157412 0.023893485 -0.017374758 -0.00393596 -0.016532028 -0.016224867 0.014911214
-0.04149742 0.02337384 0.012112896 0.04417259 -0.03811562 -0.014387277 -0.024698405 -0.00041158212
-0.018183213 0.050773416 -0.016732827 0.032860022 -0.027953282 -0.0042970353 0.0402814 -0.039110854
-0.00039703946 -0.026108734 0.04966397 -0.0139291575 -0.044367637 0.025846096 0.033996698 -0.016887706
0.020352721 -0.04183674 0.004581885 0.05007117 0.04639426 -0.03920777 0.035585918 0.0346401
0.015459288 -0.018040037 0.034367494 0.008872542 0.045932207 -0.05428949 -0.05593749 0.047086667
-0.012034596 -0.012019703 -0.0021177356 -0.033697985 0.056959175 0.013398299 -0.03204715 0.0039843367
0.0034749208 0.015081273 0.033061925 -0.042315666 0.04314455 0.013216699 0.04835451 0.012534293
-0.023542218 0.03934036 0.05019954 0.05419668 -0.031124653 0.018249694 0.017014613 -0.022360193
0.045323703 0.0026172334 0.031091467 0.010671629 0.005701988 0.005414011 0.039485916 -0.048158728
0.007583539 0.024266174 -0.035060465 -0.049065534 -0.006291952 -0.012249991 -0.041540224 -0.010288752
-0.06304202 -0.05282388 -0.040714335 0.016331643 -0.05409516 -0.052673962 -0.021749869 -0.0039146873
0.05368086 -0.05024086 -0.0479328 -0.027634645 0.023583284 0.03680623 -0.033162285 -0.028250176
-0.026311016 0.0046550767 -0.034538295 0.053398266 -0.027367586 -0.003564236 -0.03134856 0.0480018
0.015190685 0.0015770782 0.043329768 0.004317895 -0.032347288 0.032043755 -0.008026531 -0.038644753
0.01127342 0.031236436 0.05810339 0.048970405 -0.026366841 -0.022234982 -0.03043485 -0.027804688
0.04525545 -0.000892593 0.04425602 -0.014543965 -0.03660589 0.016793985 0.001001274 -6.610286e-05
0.021104109 -0.03795247 -0.019560263 0.047825795 -0.008486148 0.02725863 0.012153215 0.051664427
0.04944181 -0.011172862 0.034435295 0.025461279 -0.021196557 0.04926369 -0.0039359042 -0.030907156
0.028639397 0.015458452 7.729133e-05 -0.049079433 -0.03288409 0.0025263894 0.055876616 -0.022843728
0.022135422 0.024066946 0.045441233 -0.035528783 0.041383833 -0.042203493 -0.036278132 -0.029491063
0.050229292 0.019016027 0.021230094 -0.014169224 0.05104795 -0.036673866 0.057076305 0.032003924
-0.04093609 0.04380227 -0.010496275 0.03338619 -0.033556826 0.028652089 0.064301446 -0.030778846
-0.037444405 -0.029850122 0.0093222605 0.03675526 0.038745325 0.02331113 -0.042230804 0.0030893614
0.005322512 0.003993321 0.0177042 -0.048638187 -0.016219461 0.048211258 0.025659353 -0.040332343
0.0014464594 -0.025568584 0.02241446 -0.04116748 0.018121963 -0.034152832 0.039054 -0.035135854

bias f4 [32]
00000000: 6539 d4bc b372 abbc ca18 36bc 45f3 cdbc
00000010: 6352 0f3b aa92 d9bc 80d9 7dbd 3e29 78bc
00000020: 0aa6 a63b b809 4cbd 0e6c e33b 374b 2b3d
00000030: bfb0 44bd 3632 003d 885e 87bd c208 973c
00000040: 8938 efbc 2a26 493d d103 b1bc 1749 96bc
00000050: debd 833d 8974 6e3c bd04 fa3b 6d7c 173c
00000060: 022a 76bd 9dd0 ac3c 3f52 b9bc 0272 763c
00000070: 2371 3fbd c4c7 7dbc 44b1 24bd ba95 4d3b
-0.025906274 -0.020928716 -0.011114309 -0.025140414 0.0021869175 -0.026559193 -0.061975002 -0.015146552
0.0050857114 -0.049813956 0.0069403714 0.041819777 -0.04802012 0.031297885 -0.06609827 0.018436793
-0.029201763 0.04910866 -0.021608265 -0.018345399 0.06432699 0.014554151 0.0076299594 0.009245974
-0.060098656 0.021095568 -0.022622226 0.01504183 -0.046738755 -0.015489522 -0.040208116 0.0031369762

weight f4 [120, 800]
00000000: 58bf 113d b1c9 f43c 200c 95bc f1a3 c73c
00000010: 4211 093d 8e64 d73c d0bf 013d 05a6 843c
00000020: d7f1 e93c 21e8 a9bc 6382 febc 7293 293c
00000030: 962a e3bb 9ac9 dcbb b4e4 15b8 9ae4 7a3c
00000040: 7d17 85bb be25 fb3c 5a40 5e3c 1ac1 c9bc
00000050: 2021 99bc d7ba cfbc cdfb 373c 5993 06bd
00000060: a39b 753b 2370 c63c 7691 143d a425 c7bb
00000070: 097d 0c3d 627e e03c 5328 25b9 92ac 9d3c
00000080: fb6f 0b3c 6633 903c 1dc9 c2bc 4997 483c
00000090: 9d94 a83c 4506 aebc f085 6b3c e6ca 22bc
000000a0: 2a91 b1bc f69a 103d e2cb 2c3b 5760 e33c
000000b0: f666 fb3c 57f5 f33c 7aef c73a ab56 1e3c
000000c0: d0d3 a5bb 6886 953b caa6 4f3c c0a8 433c
000000d0: f9fd 51bc da1f 203d 7fba 683c 3f20 aabc
000000e0: 924e 93bc 427f 6ebc 5756 063c 357e 5dbc
000000f0: 5238 a8bc 076f bfbc f903 1f3d 99e6 8ebc
00000100: 3cca 8b3c 848d 87bc e796 42bc d148 c93c
00000110: d4f6 9ebb 5049 ea3c 42a3 62bc b35a 013c
00000120: 1c79 193d 3c9d 163d e871 b93c 53f6 b5bc
00000130: d1a4 cebc a296 fd3c 7cfd 84bc 9c5d d9bc
00000140: 56ae adbc 3884 fc3a 2a8f 48ba 7937 783c
00000150: d191 f83c 26a7 85bb 1b8c 9c3c 1859 293d
00000160: 0b51 f2bb cdb4 673c 54df fcbc b761 7cbb
00000170: c1c2 27bb 3d40 d13c b7c6 583c eeb8 24bc
00000180: c83f aebc 36ac 9d3c 2ca7 bd3c b577 ee3c
00000190: 37ab 2c3d fd62 2d3c 74df e53c 6011 473d
000001a0: 4b8f 89ba 5766 7d3c 2bff e33c c4d8 0c3d
000001b0: c993 c2bc eff3 fe3c 0376 c8bc 8640 31bb
000001c0: 70b4 f43c 2c8f d93c e43d 613c 30c3 ebba
000001d0: 6707 b2bc 69eb dfbc 62fd 89bc e958 5abc
000001e0: a029 a83a 323f afbc fc47 33bb 37af 2ebc
000001f0: e5c7 8fbb 9ab4 cf3c aa03 933a 0552 93bc
00000200: ca6a 003c b1a0 c83c e1aa 053d 27e4 ccba
00000210: bcd2 bc3c 29b6 b6bc d494 adbc 1e9f 1d3d
00000220: 0559 21bc 1471 e33c 2772 0c3d 1cf2 11bd
00000230: 67ba e83c fc4d 143b 0a36 5a3c b2b9 5eba
00000240: ec31 03bd 265d a0bc 490e 4c3c 88df 8ebc
00000250: 57d3 d93c 2876 083c def5 d43c d7c0 b43c
00000260: ce5d b0bc 376b 02bc 9ea9 073c a26f b3bc
00000270: 3fdb 913c 11d2 173d d975 a73c 3144 903b
00000280: d746 4ebd 0a08 dabb 1e44 c83c b7d0 0abd
00000290: fb11 2bbc e657 783c 42ed 11bd f0fe aebb
000002a0: f27a 96bc ebf6 3aba 15bd 133c 49a0 9a3b
000002b0: 9964 b8bc 5580 89ba 7432 edbb 0e23 d9bc
000002c0: cc22 a3ba 7c42 633c c9a9 9bbc 1909 863b
000002d0: 258e f83a ebc0 d43c 506b af3c f6ad e938
000002e0: f32b 053d 118f 90bc 9b3a aabc d404 183b
000002f0: ce2a 83bc 75dc cdbc b7a0 9b3c 4a0d 053b
00000300: d99c 0abd ada1 bc3c bea2 dbbc fae0 edbc
00000310: ad08 853c 525b 18bd 2b70 56bc d071 c7bc
00000320: c7e6 eb3c b95f cc3b 9b76 0abd 832a e13b
00000330: bfc4 7bbc 9cd5 0a3d 2918 41bb d1a9 0d3b
00000340: 8b77 05bd d8cf 723b 3273 afbb ccc3 443c
00000350: b623 07bd 962b 04bd 6221 b23c dab7 1cbc
00000360: 0cab 083d 77f3 12bd f535 a1bc 476f 71bc
00000370: 2e23 7d3c 2198 4bbc e299 aa3b fb5a c43c
00000380: 6ba2 c63c 4273 a3bb 00e9 b5bc bd08 103d
00000390: f7ed 0a3d 9169 f5bb fdfe 363b dbf0 ee3c
000003a0: 99c1 15bc 684d f23c 121a df3c b95e 473c
000003b0: 14c4 fabc b708 c9bc 0a7b cfbc 5657 253b
000003c0: 34bb 2cbc da9f 503c f709 e13c b6db 103d
000003d0: 991b 093d 4008 7f3c cf82 8b3c 1863 9cb8
000003e0: c0c6 353d c095 b63c 7c8c 583d 653a 3e3c
000003f0: a5fc eb3c 2b6e 013d 090d 5b3c 3d56 0b3d
0.03558287 0.02988133 -0.018194258 0.024370166 0.033463724 0.026293065 0.031677067 0.016192446
0.028557701 -0.02074057 -0.031068033 0.010350095 -0.006932567 -0.0067379 -3.5737365e-05 0.015313292
-0.004061638 0.030657645 0.013565147 -0.02462821 -0.018692553 -0.025357647 0.011229468 -0.032855365
0.00374768 0.024223393 0.036271535 -0.006077485 0.03429893 0.027404014 -0.00015750648 0.019247327
0.008510585 0.017602634 -0.023777539 0.0122431 0.020578677 -0.021243224 0.014375195 -0.00993607
-0.021675665 0.035304032 0.002636664 0.0277559 0.030688744 0.029780073 0.0015253865 0.009664218
-0.0050606504 0.0045631416 0.012674043 0.011942089 -0.012816899 0.039092876 0.01420462 -0.02076733
-0.017981801 -0.014556708 0.008199296 -0.01351886 -0.020534668 -0.023368372 0.038822148 -0.017443942
0.017064206 -0.016546972 -0.011876798 0.024570854 -0.0048512015 0.028599411 -0.013832869 0.00789516
0.037469015 0.036771044 0.022637323 -0.022212183 -0.025225075 0.030955616 -0.016234152 -0.026533894
-0.021201294 0.0019265478 -0.00076507276 0.015149944 0.030342968 -0.0040787635 0.019109776 0.041344732
-0.007394915 0.014142227 -0.03086821 -0.003851039 -0.002559826 0.025543327 0.013230971 -0.010053856
-0.021270648 0.019247156 0.023151003 0.029109815 0.04215547 0.010582683 0.028060652 0.048600554
-0.0010494975 0.015466294 0.027831635 0.03438641 -0.02375211 0.031122176 -0.024470335 -0.0027046516
0.029871196 0.026557527 0.013747666 -0.0017987248 -0.021732045 -0.027333932 -0.016844455 -0.013326862
0.0012829788 -0.021392439 -0.0027356138 -0.010661892 -0.004387843 0.025354672 0.0011216302 -0.017983446
0.0078379605 0.024490686 0.032633666 -0.001563196 0.023049705 -0.022303658 -0.02118913 0.038481824
-0.009847884 0.02776388 0.03428855 -0.035631284 0.028409196 0.002262949 0.013318548 -0.00084962987
-0.03203003 -0.019575667 0.012454578 -0.017440572 0.026590033 0.008328952 0.025996145 0.02206461
-0.021529105 -0.007960132 0.008280186 -0.021903817 0.01780474 0.03706557 0.020441936 0.0044026603
-0.050360527 -0.0066537904 0.024446543 -0.033890452 -0.010441299 0.015157675 -0.035626657 -0.0053404495
-0.018369172 -0.00071321306 0.009017249 0.0047188145 -0.022508906 -0.0010490516 -0.0072386805 -0.026505973
-0.0012446283 0.013870832 -0.019001858 0.00409044 0.0018963261 0.025970897 0.021413475 0.000111427085
0.032512616 -0.017646344 -0.020779898 0.0023196237 -0.016011622 -0.025129536 0.018997533 0.002030211
-0.033840988 0.023026312 -0.026811 -0.029037941 0.016239488 -0.037196465 -0.013088266 -0.024346262
0.028796567 0.006236997 -0.033804517 0.006871523 -0.015366732 0.03389512 -0.0029463863 0.002161611
-0.03258471 0.0037050154 -0.0053543085 0.012009572 -0.03299304 -0.03226813 0.021744434 -0.009565318
0.033366248 -0.035876717 -0.019679049 -0.014736003 0.015450282 -0.012426407 0.0052063325 0.023969164
0.024247369 -0.004988105 -0.02220583 0.035164583 0.033918347 -0.007489391 0.002792298 0.029167583
-0.009140396 0.029577926 0.027234111 0.01216858 -0.030611075 -0.024540288 -0.025327224 0.0025229058
-0.01054268 0.012733424 0.027470572 0.035365783 0.033473585 0.015565932 0.017030148 -7.457117e-05
0.044378996 0.022288203 0.05286835 0.011610602 0.028806994 0.031599205 0.013369807 0.03401779

bias f4 [120]
00000000: 2157 ad3b 76bf 003d 8e3b 01bd ab62 27bd
00000010: 9afd 073d 3f59 363c 85a1 043c d84b b3bc
00000020: 8742 bebc ec83 2f3b 4fd3 813b 8793 2a3d
00000030: b56a 03bd 95cd c0bb 6a06 943c f291 b539
00000040: faea a63b 6822 03bc 3297 ef3b 48d8 eabc
00000050: 95a5 ab3a 1aea 883b 6d21 c4bc 0c12 0bbc
00000060: ce1b ac3c a08c c93c bc62 09bd ac0c 1d3c
00000070: dd51 2e3d fd2f ca3b 6a1e bbbc 8803 563c
00000080: 32da dabc 7b78 e1bc 090c 143c e0fc bcbc
00000090: 905b 783c 8481 c93c bf91 99bc a269 913b
000000a0: 4b90 ec3c 2f0a e0bc fc41 87bc 8544 e1ba
000000b0: 3124 19bd 31ed f5bc 25e1 ea39 9ba4 c53c
000000c0: ca59 fb3b f1cb a2bc 7544 fb3c c0d4 42bc
000000d0: c264 ed3c e2cf 1abd 2089 10bc dd44 09bd
000000e0: 2886 fcbc 60ad 1e3d 4f8d b43c 7b0f e6bc
000000f0: dd02 b3bc 861f f43c 75b3 1b3d ccea 863c
00000100: 576a f43b 1762 ac3b bcde cfbc 6408 09bb
00000110: ca09 00bd b48e f73a b6c8 d43c 5158 8bbc
00000120: 9b13 70bc fe63 333d 2aab d83c 958a 84bc
00000130: 83d6 953a 7b8a 51bd 1939 303c 0469 95bc
00000140: d99a e53c a063 c23c 7183 e1bb a6b7 4cbd
00000150: 502d ecbb 1da5 35bc 58d9 dd3b 20e7 d5bc
00000160: a0be dfbb 849b acbb 0e27 dbbc 6579 8abc
00000170: 42e1 d3bb 8ca4 12bd 14ff dabb 0b25 093d
00000180: 16ab ae3c a94e ccbb c0b9 973c bf43 1c3d
00000190: be96 8bbc d8c7 433c 1ad4 093d 5f73 123d
000001a0: 1b29 84bc 8efb d3bc 730b 0dbc 624d 14bc
000001b0: 7849 133d 48ed be3b 134a ba3c 6be1 b1bc
000001c0: 1dca 043d 3a84 12bc 548b 473c 6786 913c
000001d0: 4c2c ad3c a2d6 d73c e3cd e93c 7634 c5bc
0.0052899276 0.03143259 -0.031550936 -0.04086558 0.033200838 0.011129676 0.00809515 -0.021886751
-0.023225082 0.0026781512 0.0039619575 0.0416446 -0.032084186 -0.0058838823 0.018069465 0.00034631748
0.0050939294 -0.008003809 0.007311725 -0.028667584 0.0013095612 0.0041782977 -0.02394172 -0.008488189
0.021009352 0.024603188 -0.033541426 0.009585541 0.04255854 0.0061702714 -0.022841651 0.013062365
-0.026715372 -0.02752327 0.0090360725 -0.023069799 0.015158549 0.02459789 -0.018746255 0.0044376412
0.028877398 -0.027348606 -0.016510956 -0.0017186558 -0.03738803 -0.030020328 0.00044799704 0.024126342
0.007670616 -0.019872637 0.030672291 -0.011891544 0.02897871 -0.03779591 -0.008821756 -0.03351294
-0.03082569 0.038739562 0.022040037 -0.028083554 -0.021851951 0.029800188 0.03801294 0.016469382
0.0074589658 0.0052607167 -0.025374763 -0.0020909542 -0.031259336 0.0018887133 0.025974613 -0.017009886
-0.014653112 0.04379653 0.026448805 -0.016179362 0.0011431727 -0.051157456 0.010755801 -0.018238552
0.028027939 0.023729146 -0.006882124 -0.04997983 -0.00720755 -0.011086729 0.006770294 -0.026111186
-0.006828144 -0.0052675623 -0.026752021 -0.016903589 -0.006466062 -0.035801455 -0.0066832397 0.033482593
0.021321815 -0.006234963 0.01852119 0.038150545 -0.017039653 0.011949502 0.03364954 0.035754558
-0.016132882 -0.025876787 -0.008608687 -0.009051653 0.035958737 0.005826626 0.0227404 -0.021713933
0.032419313 -0.008942658 0.0121792145 0.017764283 0.021139286 0.026347462 0.028540557 -0.024072867

weight f4 [84, 120]
00000000: 581b c93d db89 dd3c 544d 3e3c 761b 8c3d
00000010: b367 c3bd 18f4 a23c a713 173d 975a 903c
00000020: b212 e53d 7345 a5bd d487 683d f0b3 563d
00000030: 1773 d13d d980 473d 90b9 14bc cda0 b3bc
00000040: 1fac 993d 6bb1 cc3d da7f 37bd 5ba4 8f3d
00000050: fb76 083d d30f 9f3d 29af bc3d 4868 0d3d
00000060: 3715 553d 93cb a6bc 715a 0cbd b515 99bd
00000070: 842a 5b3d 6d16 233d 1978 61bd 72c6 9ebb
00000080: d0a2 953d 0a48 993d ef06 a43d 762b 533d
00000090: a6b1 3c3c 978e e43c 0cc4 85bc fdb8 98bd
000000a0: 4d22 a8bb 7253 e23b 3691 b03c 7cef e5b9
000000b0: d1ec b1bd cf9c 54bd 3b78 1bbd 6a75 cebd
000000c0: 0b31 bd3c 4e4e 90bd 8322 c03c 1de9 e03c
000000d0: dc3d 0fbd 3dcb 113d 5b91 d7bc bb1b b9bd
000000e0: c2d8 a7bd e97b 343d 9e99 9e3d 4fa6 8a3d
000000f0: 5a9b 2e3d 9838 a03d a2bc 67bd bd77 12bc
00000100: 2e07 efbc a747 51bc bb6b 4ebc 1cca 26bc
00000110: 24b7 83ba c650 0e3d a51f 353d ee36 48bd
00000120: d64d 01bd c9c2 7d3d 1325 84bd dec5 38bd
00000130: 31ef 75bd 3269 583d 7755 27bb 3040 d03d
00000140: 6595 6cbd ca14 9abd 4e64 aebd e979 8f3c
00000150: 55aa b23d f3e3 5a3d b9c9 c93c e7d0 f93c
00000160: e397 ce3c 4945 9bbd d579 843d 63f0 29bd
00000170: d48f 9f3d ac32 293d d82b 7cbd 76d9 5fbd
00000180: 3a3e 9abd 7e19 abbd 801d 22bd 00bc 65bd
00000190: 204d 7e3d 9780 f93c 97c4 153d 74fe 803b
000001a0: 72e3 343c c01d 083c c9ff b23d ffba c7bb
000001b0: 5611 7a3d 99f7 d53c 2302 3e3d fb7e 853c
000001c0: 0cc1 153d 9b05 843d 0ca4 9c3d 85e5 9dbc
000001d0: 8d8e c83c 344f c93d 8772 b2bd 9bea 87bd
000001e0: 1d6c 3ebd b5af 113c 5abd b13d c426 d03c
000001f0: 4f89 00bd 2fec 90bd 168c 98bd 04cc 66bd
00000200: e608 2b3d 96f5 7e3d bc72 2f3d 0787 88bc
00000210: fafb da3d dd7a a23d 22fd 033d fb5c 2d3c
00000220: 9b2d 3abd 44bd 573c 0eb8 06bd c909 4d3d
00000230: 9040 a53d 2f38 a53d 84de 54bd 8bf4 8d3d
00000240: a482 c53d b0a9 423d b18b 74bd 012b dcbc
00000250: 99dc d63d 3cfa 57bd f32d a0bd 3991 6f3c
00000260: 125a d5bc 9155 4cbb c3a3 72bc bd90 a03d
00000270: 88c9 46bd 6ea3 013c eaba bbba 5256 52bc
00000280: 39d7 c3bd 741c 81bd 8257 313d 5912 cc3d
00000290: 65a3 cfbc 8864 e93c 582d 513d c895 dfbd
000002a0: 82e3 bcbc b46c 613c 3366 c33d 3dad 163d
000002b0: 9592 893d 995c 9abd 1c29 323d 56dc c0bd
000002c0: ee62 f3bc 893f 93bd 508e 39bd 388f 97bd
000002d0: c44e 503c 3428 1e3d 03e2 363d 6a55 1e3d
000002e0: a601 833d d224 5fbd b7a0 b23d e2b3 f53c
000002f0: 5338 263d 8eaf 073d eaea dd3d f4d1 adbd
00000300: 96d8 963d f911 adbd b3fe 5fbd 97ea 4d3d
00000310: 188f 9c3d a517 1d3d c935 dc3a e91c 86bd
00000320: af13 36bd ca2e a33c 1588 903d 4ff4 dc3b
00000330: 222c 4ebd 1fd5 9bbc 28a5 aa3c bcc4 fd39
00000340: 15e3 0abd 3798 b8bd 66d3 6a3d 45de 5f3d
00000350: 3f64 c2bc 356a 993d dc23 6abc c60d 8e3d
00000360: 58f8 833c b2f8 e5bb 1e0c ebbc b247 08bd
00000370: 2de2 c63b 6edd acbd 6c03 9f3d 3850 a63d
00000380: 8903 f63c a1a1 e73d d246 9bbc 71cd 92bd
00000390: bed0 22bd 2108 9e3d da8f a93c 18fa d9bc
000003a0: a376 4b3d 6c47 0fbc aae5 a13d 167d d5bd
000003b0: f609 4ebc 1468 b03d 030a 63bd d86f 983d
000003c0: 3bdc ab3d f9c7 933d b698 88bd 105f 12bc
000003d0: f0fe adbd 8e29 463d 4ca5 97bd c0f9 413d
000003e0: 10a9 0fbd 9503 30bd c318 7cbd 0208 bc3d
000003f0: d1f3 69bd 38ad b33c 1f8f 6cbd 8d11 7b3d
0.098196685 0.027043274 0.011615116 0.06841175 -0.095412634 0.019891784 0.036883976 0.017621322
0.111852065 -0.08069887 0.05677016 0.052417696 0.1022703 0.048706863 -0.009077445 -0.021927262
0.075035326 0.09994777 -0.044799663 0.0701377 0.033316594 0.0776669 0.09213097 0.03452328
0.052022185 -0.020360744 -0.03426594 -0.074748434 0.053507343 0.03981631 -0.055046175 -0.004845434
0.07306445 0.074844435 0.08009135 0.05155512 0.011516964 0.027900023 -0.016328834 -0.07457159
-0.005131042 0.00690692 0.021553617 -0.00043856713 -0.08687747 -0.051907357 -0.037956458 -0.10080989
0.023094675 -0.070461854 0.023453956 0.027454907 -0.034971103 0.035594214 -0.026314428 -0.09038492
-0.0819564 0.044063482 0.07744144 0.06770002 0.042628624 0.078232944 -0.05657638 -0.008939681
-0.029178228 -0.012773431 -0.012598927 -0.010180023 -0.0010049087 0.034745 0.04421963 -0.04888051
-0.03156837 0.06195334 -0.06452384 -0.045110576 -0.060042564 0.052834697 -0.0025533119 0.10168493
-0.05775966 -0.075234964 -0.08515225 0.017514186 0.087238945 0.053440046 0.024632322 0.03049512
0.02521891 -0.075815745 0.0646855 -0.041489016 0.07791105 0.04130809 -0.06156525 -0.054650746
-0.075314 -0.083544716 -0.039578915 -0.056087494 0.06208527 0.030456824 0.036564436 0.003936583
0.011040555 0.008307874 0.087401934 -0.0060952897 0.06105169 0.02611904 0.046388756 0.0162959
0.036561057 0.06446382 0.07648477 -0.019274483 0.024482036 0.0982956 -0.087132506 -0.06636544
-0.046489824 0.0088919895 0.08678694 0.02540911 -0.031380948 -0.070762984 -0.07448594 -0.05634691
0.041756533 0.062245928 0.04283403 -0.016665949 0.10692592 0.079335906 0.032223828 0.01058125
-0.04545365 0.013167683 -0.032890372 0.05005816 0.08068955 0.08067357 -0.05197002 0.069314085
0.09644058 0.047525108 -0.059703533 -0.026875975 0.104912944 -0.052728876 -0.07821264 0.014622026
-0.026043925 -0.0031178931 -0.014809552 0.07840107 -0.04853204 0.0079125 -0.0014322673 -0.012837963
-0.09562535 -0.06304255 0.043296345 0.09964437 -0.025346467 0.02849032 0.051068634 -0.109172404
-0.023057703 0.013758827 0.09540977 0.036786307 0.067174114 -0.07537193 0.043496236 -0.09417026
-0.02971026 -0.07189853 -0.045301735 -0.07400364 0.012714092 0.03861256 0.044649135 0.038655676
0.06396799 -0.054478474 0.0872206 0.029993001 0.04058106 0.033126406 0.10835822 -0.08487311
0.07365529 -0.08450694 -0.05468626 0.05027255 0.076444805 0.038352627 0.0016800697 -0.06548483
-0.044452365 0.019919772 0.070572056 0.006742991 -0.050335057 -0.019022522 0.020830706 0.000484025
-0.03390797 -0.09013408 0.05733051 0.054655332 -0.023729442 0.074909605 -0.014290776 0.06936221
0.01610963 -0.007018172 -0.028692301 -0.0332715 0.0060694427 -0.08440672 0.077643245 0.08120769
0.030030983 0.11310125 -0.018954668 -0.07168091 -0.039749853 0.07716394 0.020698477 -0.026608512
0.049673688 -0.008745056 0.07905133 -0.10424249 -0.012575617 0.08613601 -0.05542947 0.074432075
0.08391615 0.07215876 -0.06669752 -0.0089337975 -0.08495891 0.048379473 -0.07404575 0.04735732
-0.03507334 -0.042972166 -0.061547052 0.09181215 -0.057117287 0.021933183 -0.05775368 0.061296035

bias f4 [84]
00000000: 41a4 8e3d ab95 8d3c 9ef9 e5bc f1b3 963b
00000010: 9e1d 883d 5f34 6cbd b3f9 b13d cfc1 c13d
00000020: 3590 2a3d 12a3 43ba cfc6 c0bc 4e66 96bd
00000030: b08f 6c3a b263 593d 3663 57bd 4289 d83d
00000040: 0b00 b53c 1db2 123d 2c01 8a3d cb12 07bd
00000050: 7d08 c03d c691 9dbd 09ad 7ebd acfc 97bd
00000060: 5a13 90bd c911 923d 4b34 8fbd 2799 a03d
00000070: 2dfe ca3c 613f 56bd 5268 2f3d 4cd8 f8bc
00000080: ba4a a4bd c443 ae3d 4caf 223d 83f1 64bd
00000090: 313e 82bb 36fb 7fbd 484f 9ebd a35b f13c
000000a0: 0f4d 70bd dde0 ac3d 5dab 5a3c 22f8 d83c
000000b0: c42d b4bc 0a4a 2bb9 ad06 bd3d 5816 95bc
000000c0: 1a42 3abd a501 b73d 5729 17bd c2a5 8b3d
000000d0: 4e31 803d ff40 0abb 1b7d 0b3d 1721 16bd
000000e0: 4529 3d3d a202 2a3d 0cf9 66bc b017 ac3c
000000f0: 5eaa ffbc b9c2 0cbd 088e 803d fe5f 4fbd
00000100: ef72 7e3b 8bac 373d 3830 58bd 9cd8 98bd
00000110: 4d23 23bc 71d5 00bd 73b4 bbbc 396d 9cbd
00000120: 8535 1b3c e6e7 a43b be1f a8bc aedc e9bc
00000130: b071 08bd 7b4c 94bd 17b9 9a3d 6f60 bf3d
00000140: 288f e23c 9f45 543d f097 83bd 595b 29bd
0.06964923 0.017283281 -0.028073128 0.0045990874 0.06646274 -0.057667132 0.086902045 0.09460794
0.041641433 -0.0007462959 -0.0235323 -0.07343732 0.00090240967 0.053073592 -0.05258485 0.10573055
0.022094747 0.035814393 0.06738505 -0.032976907 0.09376619 -0.0769382 -0.062176738 -0.0742124
-0.07034941 0.071322985 -0.06992396 0.078417115 0.024779404 -0.052306537 0.042824097 -0.030376576
-0.080220655 0.08509019 0.039717957 -0.055894386 -0.003974699 -0.062495433 -0.077299654 0.029462641
-0.05866724 0.08441327 0.01334652 0.026485506 -0.021994479 -0.00016335413 0.09229789 -0.01819913
-0.045473196 0.089358605 -0.03690466 0.06818725 0.06259404 -0.002109587 0.034054857 -0.03665265
0.046181936 0.041506417 -0.014097463 0.021007389 -0.031209167 -0.03436539 0.0627709 -0.050628655
0.003882583 0.044842284 -0.05278036 -0.0746319 -0.009957147 -0.031453554 -0.022913193 -0.0763802
0.009473209 0.0050325273 -0.020522948 -0.028547611 -0.033311546 -0.0724115 0.07554834 0.09344565
0.027656153 0.05182421 -0.06425464 -0.04134688

weight f4 [10, 84]
00000000: f800 213d 07e1 b83c 9884 cc3c 39a2 153d
00000010: 4c5b 2bbe 5680 cabb ad75 61bd 9ca7 70bd
00000020: 9cf5 293d cf72 e43d 7a3a 7e3c 9c6f 30be
00000030: 28ea 30bc 5691 d1bd 86d5 07bc 87bc 99bb
00000040: d1bd ad3d 494e a9bd a2bd 51be 580b 8e3d
00000050: 9788 bcbd 76c0 dcbd b482 d3bc 7dc6 bebd
00000060: 9fe5 f2bd 8a89 3fbd a517 08bd c216 85bd
00000070: 6f20 233c 7e7c 23be d227 33bd 37cb a23a
00000080: 474b a4bd 30d3 23be 574d 803d d657 993d
00000090: 4a54 b8bd f1b0 ce3c e32b 94bd d16e 47bd
000000a0: febb a6bc 4fdd babd 439a 853d 66cc 08be
000000b0: ce90 cbbd d04f 40bd ef3f bf3d 3b43 bcbd
000000c0: 4e49 ae3d e571 25be 1244 f33c 688e 113e
000000d0: f547 183e 1b97 123e 83df 82bd 01cf 803d
000000e0: e8d7 75bd 40f7 bb3d 6584 7ebd 7250 9f3b
000000f0: 59b1 18bc 0db7 6abd 4461 a43c 2ef6 1e3e
00000100: aa9e 6dbc 462f 313e 3e97 1a3d 21eb dd3c
00000110: e4f8 eb3d a92a 9bbc 4724 78bd e7c3 afbd
00000120: b779 46bd 954d 8c3c 324b 82bd da7e 16bd
00000130: 2ff4 c7bd b8ec 0b3e df48 6bbd 4c69 e4bd
00000140: f635 b53d d5e4 803c c51c a93d 0dd2 d2bc
00000150: af3d de3d 1f3f 3cbe 7528 f2bb 1b9c e13d
00000160: ada7 853c b148 af3d 83b5 1ebd 33a0 e4bc
00000170: 8a27 21ba 8569 ffba e02f 00be 4e54 24bd
00000180: 4170 fc3d b5eb 0cbe 6c68 eebd a93c f03d
00000190: 7f5a ef3d cb92 823c 8818 66bd 8f5a 8b3d
000001a0: 57fd 4c3d 3566 843d c7cb 383e 3e7c 7d3d
000001b0: 68ca ea3d cf62 84bd 12c7 4f3d 80de e7bd
000001c0: 255c 87bd e586 05be 7bb2 bcbd 040b a1bd
000001d0: 1632 fa3d 7c53 e7bd 99a6 333d 4822 03bc
000001e0: 44c9 8fbb a154 3d3d df5c 413b 3c20 1ebe
000001f0: 405a 7f3d 4393 c3bd 4018 c6bd 49fd c0bd
00000200: 1c3d ae3d 1380 2d3b 6abb d83d daee a8bd
00000210: 61c3 d9bd 8369 d9bd ae1f b73b 70e3 a2bd
00000220: fc58 303d 1cf1 1fbe 0f7c a5bc 3532 f03d
00000230: 9ebe 053d e1a9 32be 6d41 9e3d 62eb 0cbe
00000240: 6755 6a3c e664 343e 7328 253d e589 1bbe
00000250: 29a2 d0bd e433 573c 3f51 1a3e 2d10 f53d
00000260: 68de 4cbd d688 7c3c 395e b93d 4c6c 73bd
00000270: 6056 1cbe 3772 35be ea42 12be 1515 023e
00000280: f557 c93d d350 003e da45 d0bd 75f7 0abe
00000290: d789 08be 9faa e7bd 4a75 b0bd dee4 0bbe
000002a0: 0b70 573d 4ef0 683d ecd1 85bd 22b0 d5bb
000002b0: 0c90 bf3c 92e5 373d 850b ed3d a64b 76bd
000002c0: 26af 05bd 0261 16be fa8e c43d e1ff b1bd
000002d0: 2c69 8ebd 5656 a0bc 32aa 8d3b 775d b83d
000002e0: 6ad4 1abe 05d2 883d b044 d93d ec85 10bd
000002f0: 3ab8 d53d 2e52 d7bd 14b4 02be 6f94 633d
00000300: 74d6 d93d 278f e3bc b5ef 1abe 721b 093e
00000310: a5be 08bd a2a3 053d 545b 2b3e 46b7 d9bc
00000320: 25a6 2dbd 0d0d aa3d 4da8 89bd dd9e b5bd
00000330: b3df f83d 0589 06bd de3d 25be 9f27 5a3d
00000340: c8c3 073d 8442 743c 01a4 203c 0fe2 88bc
00000350: fb04 983d 373a 5fbc 096c 0d3d 5c9b 1b3e
00000360: b730 0bbd cc59 ca3d e5ec 0fbd 9212 f8bd
00000370: 0610 da3d df09 d13c 5c8e 82bd 1447 e7bd
00000380: 7014 f23c 8880 af3d 3a10 aabd 90f7 c23d
00000390: 2e23 403d 4e9f 20be 5599 fcbc 6c3c 28bd
000003a0: ba13 c53c b0a2 043d 6206 e0bd 236b 0dbe
000003b0: e7be 90bd ee53 c53d cfca 4e3d 5636 72bc
000003c0: 553b bebd e2bf 89bc df46 f5bd 3c4b 1dbe
000003d0: 0f2b 273c d1d3 073d fe64 c53d 1edb 073c
000003e0: a91b df3d 79a8 9b38 23b9 d4bc ab13 613a
000003f0: 0f5f c83d 16e9 d03d d48e 58bd 3d91 13be
0.039307564 0.022568239 0.02496557 0.03653166 -0.16734046 -0.0061798496 -0.055043865 -0.058753595
0.041493997 0.111547105 0.015516872 -0.17230076 -0.010798015 -0.10232799 -0.008290654 -0.0046916637
0.0848347 -0.08266885 -0.20482495 0.069357574 -0.0920574 -0.107788965 -0.02581916 -0.093152024
-0.11860203 -0.046762027 -0.033225674 -0.06498481 0.009956463 -0.15965459 -0.043739147 0.0012420182
-0.080221705 -0.1599853 0.062647514 0.074874565 -0.09000452 0.025230857 -0.07234933 -0.048689667
-0.020353314 -0.091242425 0.06523564 -0.13359222 -0.09939729 -0.046951115 0.09338366 -0.09192511
0.085100755 -0.16156729 0.029695544 0.1421448 0.148712 0.14315455 -0.06390288 0.06289483
-0.060020357 0.091780186 -0.06213798 0.0048618848 -0.009319627 -0.057303477 0.020065911 0.15523598
-0.0145031605 0.1730319 0.037741892 0.027089657 0.115220815 -0.01894124 -0.06058147 -0.08582287
-0.04845592 0.017126838 -0.063619986 -0.03674207 -0.09763371 0.1366452 -0.057442542 -0.11152896
0.08848183 0.015734116 0.082574405 -0.025734926 0.10851609 -0.18383454 -0.0073900768 0.11016103
0.016315306 0.08558787 -0.03874732 -0.02790842 -0.00061475544 -0.0019486403 -0.12518263 -0.04011946
0.12326098 -0.1376179 -0.11641011 0.1173032 0.11687183 0.015939137 -0.05617574 0.06804382
0.05004629 0.06464807 0.18046485 0.061886065 0.11464387 -0.06464159 0.050726958 -0.113217354
-0.06609372 -0.1303974 -0.0921373 -0.07863429 0.122165844 -0.1129522 0.04386005 -0.008003779
-0.0043880064 0.046223287 0.0029504818 -0.15441984 0.06234193 -0.09549572 -0.09672594 -0.0942331
0.085077494 0.0026474043 0.105826214 -0.08248682 -0.10632969 -0.10615828 0.0055884933 -0.079535365
0.043053612 -0.1561932 -0.020200757 0.11728326 0.03265249 -0.17447616 0.07727323 -0.13761666
0.014302588 0.17616615 0.04032178 -0.15189321 -0.101871796 0.01313493 0.15070055 0.11965976
-0.05001679 0.015413484 0.09051175 -0.05942945 -0.15267324 -0.17719351 -0.14283338 0.12703355
0.098312296 0.12530832 -0.10169573 -0.1357096 -0.13333832 -0.1131184 -0.08616121 -0.13661525
0.052597087 0.056869797 -0.0653418 -0.006521241 0.023384117 0.04489667 0.11574463 -0.060130738
-0.032637738 -0.14685443 0.09597583 -0.08691383 -0.06953654 -0.019572418 0.0043232674 0.09002202
-0.15120092 0.06680683 0.10608804 -0.035283968 0.10435529 -0.105137214 -0.12764007 0.05556148
0.10636607 -0.027778221 -0.15130503 0.13389376 -0.033384938 0.032626756 0.16734058 -0.02657665
-0.042394776 0.083032705 -0.06721554 -0.088681914 0.12152042 -0.032845516 -0.16136882 0.053260442
0.033145696 0.014908437 0.009804727 -0.016709356 0.07422825 -0.013624719 0.03452686 0.15195984
-0.033982005 0.09880409 -0.03513803 -0.12112917 0.106475875 0.025517402 -0.06374809 -0.11292854
0.029550761 0.08569437 -0.08303876 0.09519875 0.04690855 -0.1568577 -0.030834833 -0.041073248
0.024057258 0.032381713 -0.109387174 -0.138104 -0.07067662 0.09635149 0.050486382 -0.0147834625
-0.092886604 -0.01681513 -0.11976408 -0.15360731 0.010203137 0.03316099 0.09638403 0.008291988
0.10893948 7.4223564e-05 -0.025967186 0.00085859996 0.09783756 0.102007076 -0.052870587 -0.14410873

bias f4 [10]
00000000: 19a8 aebd 457e 073e 7633 933d 9df2 5d3c
00000010: d622 d13d fb24 10be 4d22 cc3b 4f46 d0bd
00000020: 5f57 84bd b15d cf3d
-0.08528156 0.13231762 0.0718755 0.013546613 0.102117226 -0.14076607 0.006229675 -0.1016966
-0.06461977 0.10125292
